common/src/models/hps_model/hps_model_2021_07_05.tflite (tflite, 546968 bytes, 11 tensors)

sequential_1/conv2d/Conv2D i1 [16, 4, 4, 1]
00000000: 0203 d6e6 d419 0807 676d 22f6 81c7 cdca
00000010: 0c1d 2224 caa7 4d7f ddc6 d354 3fd7 add6
00000020: edcf 7d12 77fe 4c78 4eaf 84d4 33d5 81b8
00000030: aa11 2e0e 814a 21f6 1c35 a19f b743 bde2
00000040: f900 81e6 1661 0213 ee27 123d 11d0 ca17
00000050: 737f 577c 3492 bef3 c3eb c814 c363 1802
00000060: 0518 31f5 21d7 fa81 cbe3 089c 330e 572b
00000070: 4f9c 132b fa08 437f b2c0 fc34 21a3 cbf0
00000080: 0ad8 be55 ab44 e347 b17b 16d0 db7f fea8
00000090: 02a9 81d2 07e8 02cb 0039 2645 1550 2412
000000a0: e1e1 13da f021 7ff7 c1e6 3bf4 06e5 0fed
000000b0: d107 9d21 ff35 e5c6 3640 c581 4d5e bbfb
000000c0: 503f 3232 93d0 1efc 819c 0c34 fcee 0f2b
000000d0: 1a11 33e4 3b53 fc10 4996 c2fe 1281 9f3f
000000e0: 3c02 afe5 7f58 8fe5 547c d0bd 101f a3c2
000000f0: fab0 331c ca81 dd45 2bc7 ee47 4518 f620
2 3 -42 -26 -44 25 8 7
103 109 34 -10 -127 -57 -51 -54
12 29 34 36 -54 -89 77 127
-35 -58 -45 84 63 -41 -83 -42
-19 -49 125 18 119 -2 76 120
78 -81 -124 -44 51 -43 -127 -72
-86 17 46 14 -127 74 33 -10
28 53 -95 -97 -73 67 -67 -30
-7 0 -127 -26 22 97 2 19
-18 39 18 61 17 -48 -54 23
115 127 87 124 52 -110 -66 -13
-61 -21 -56 20 -61 99 24 2
5 24 49 -11 33 -41 -6 -127
-53 -29 8 -100 51 14 87 43
79 -100 19 43 -6 8 67 127
-78 -64 -4 52 33 -93 -53 -16
10 -40 -66 85 -85 68 -29 71
-79 123 22 -48 -37 127 -2 -88
2 -87 -127 -46 7 -24 2 -53
0 57 38 69 21 80 36 18
-31 -31 19 -38 -16 33 127 -9
-63 -26 59 -12 6 -27 15 -19
-47 7 -99 33 -1 53 -27 -58
54 64 -59 -127 77 94 -69 -5
80 63 50 50 -109 -48 30 -4
-127 -100 12 52 -4 -18 15 43
26 17 51 -28 59 83 -4 16
73 -106 -62 -2 18 -127 -97 63
60 2 -81 -27 127 88 -113 -27
84 124 -48 -67 16 31 -93 -62
-6 -80 51 28 -54 -127 -35 69
43 -57 -18 71 69 24 -10 32

sequential_1/conv2d_1/Conv2D i1 [16, 4, 4, 16]
00000000: da0b 1df2 ffe0 b0e2 02dc 1e1f fb04 230a
00000010: 0914 f8dd 10ea f106 00ff 0aea 1412 1cfb
00000020: 13f6 1402 e7f0 0dff e107 0510 1601 0d11
00000030: ef02 f306 12eb 05f5 10fc 080e 0d06 fafe
00000040: d0da d3f5 25fd fdc4 9416 1301 2448 ec1b
00000050: d502 1bef d20a c703 4a1f b001 f6d7 0e19
00000060: f0ec e6f1 2ef3 0007 09eb f5e9 f5be e4fb
00000070: f7fc 041d 06f0 faf0 fce8 fbfd fd19 f5ff
00000080: 1348 0ff2 9c1a 31dd f0e4 11dc def5 c94f
00000090: 30b2 dcdf 34f9 de13 281d f618 d700 5081
000000a0: 0bf7 eae8 fd04 191e e114 04e5 dd12 ec05
000000b0: f709 161d 08ff 0e01 fa02 080b e313 05fa
000000c0: fa08 100a 2927 2905 37f3 0603 08e8 e51c
000000d0: 1709 f516 ec12 00f6 14fb 0106 0b0f 04f9
000000e0: 0005 18f0 fe12 0f0a 0a18 1309 1909 feee
000000f0: f504 0500 f91a fe00 ed0e 0a0a 08fa ff02
-38 11 29 -14 -1 -32 -80 -30
2 -36 30 31 -5 4 35 10
9 20 -8 -35 16 -22 -15 6
0 -1 10 -22 20 18 28 -5
19 -10 20 2 -25 -16 13 -1
-31 7 5 16 22 1 13 17
-17 2 -13 6 18 -21 5 -11
16 -4 8 14 13 6 -6 -2
-48 -38 -45 -11 37 -3 -3 -60
-108 22 19 1 36 72 -20 27
-43 2 27 -17 -46 10 -57 3
74 31 -80 1 -10 -41 14 25
-16 -20 -26 -15 46 -13 0 7
9 -21 -11 -23 -11 -66 -28 -5
-9 -4 4 29 6 -16 -6 -16
-4 -24 -5 -3 -3 25 -11 -1
19 72 15 -14 -100 26 49 -35
-16 -28 17 -36 -34 -11 -55 79
48 -78 -36 -33 52 -7 -34 19
40 29 -10 24 -41 0 80 -127
11 -9 -22 -24 -3 4 25 30
-31 20 4 -27 -35 18 -20 5
-9 9 22 29 8 -1 14 1
-6 2 8 11 -29 19 5 -6
-6 8 16 10 41 39 41 5
55 -13 6 3 8 -24 -27 28
23 9 -11 22 -20 18 0 -10
20 -5 1 6 11 15 4 -7
0 5 24 -16 -2 18 15 10
10 24 19 9 25 9 -2 -18
-11 4 5 0 -7 26 -2 0
-19 14 10 10 8 -6 -1 2

sequential_1/conv2d_2/Conv2D i1 [16, 4, 4, 16]
00000000: 0119 11ff e003 ff09 fbe3 13dd eefe f8d7
00000010: ef1f 0bf8 fde9 26c9 131a 0cf3 0c2b 8109
00000020: acdf 10f4 0cfe f018 1812 b628 0fee fa2a
00000030: 00c0 02ff 2113 e10e d003 f531 dff7 03d9
00000040: 0ef3 fefd 112b fc07 f5d8 03df fade 20f4
00000050: 2a40 1f1f b0b8 07ee e21f 30b0 2737 08eb
00000060: 85ff f103 0abb 41d4 1a1f 1e0e 3d19 ab35
00000070: ffb7 1e01 1c0d aef7 04f2 9f3c 0ac9 f70e
00000080: 1007 cddb 1d10 f22a 0dcb fd0c d8b2 37e5
00000090: 1008 1956 e730 cbf6 0bbe 29a9 e319 41d3
000000a0: effe ebda ddab 30cf d93e 39e7 3522 f3d9
000000b0: d9f3 17ce 050f 1e0c 17fc cd30 1519 da08
000000c0: ffe5 ccd0 0805 fc0c f5e9 2819 eada 0cea
000000d0: 00f3 f92e 1bfe d910 00d1 fff8 ccd0 00ae
000000e0: f4fb f524 fbef ece7 fbef 19e1 f700 e7c5
000000f0: dd07 09b0 faf5 1cfb fd05 0b20 f509 f706
1 25 17 -1 -32 3 -1 9
-5 -29 19 -35 -18 -2 -8 -41
-17 31 11 -8 -3 -23 38 -55
19 26 12 -13 12 43 -127 9
-84 -33 16 -12 12 -2 -16 24
24 18 -74 40 15 -18 -6 42
0 -64 2 -1 33 19 -31 14
-48 3 -11 49 -33 -9 3 -39
14 -13 -2 -3 17 43 -4 7
-11 -40 3 -33 -6 -34 32 -12
42 64 31 31 -80 -72 7 -18
-30 31 48 -80 39 55 8 -21
-123 -1 -15 3 10 -69 65 -44
26 31 30 14 61 25 -85 53
-1 -73 30 1 28 13 -82 -9
4 -14 -97 60 10 -55 -9 14
16 7 -51 -37 29 16 -14 42
13 -53 -3 12 -40 -78 55 -27
16 8 25 86 -25 48 -53 -10
11 -66 41 -87 -29 25 65 -45
-17 -2 -21 -38 -35 -85 48 -49
-39 62 57 -25 53 34 -13 -39
-39 -13 23 -50 5 15 30 12
23 -4 -51 48 21 25 -38 8
-1 -27 -52 -48 8 5 -4 12
-11 -23 40 25 -22 -38 12 -22
0 -13 -7 46 27 -2 -39 16
0 -47 -1 -8 -52 -48 0 -82
-12 -5 -11 36 -5 -17 -20 -25
-5 -17 25 -31 -9 0 -25 -59
-35 7 9 -80 -6 -11 28 -5
-3 5 11 32 -11 9 -9 6

sequential_1/conv2d_3/Conv2D i1 [48, 4, 4, 16]
00000000: f220 efed fa17 1101 da1c e0e6 e3e2 30e1
00000010: e621 f8f9 d5fa 1003 e515 8bf7 c1df 0e9c
00000020: f611 0cf5 d7f6 0ff3 f00d fbea f10c 02f2
00000030: ffd6 05f2 060d 16f7 1912 e0e3 14ec 051c
00000040: 2835 17f7 1f13 261a f20b 011c 0a07 f9f7
00000050: 2627 05ff 0ad9 0e38 b6f0 c3e8 10f5 e281
00000060: 3e02 fe16 c9fc 1120 f303 f003 0504 e68a
00000070: 1d02 0b10 dc11 0d12 fa13 ee19 1ee3 faec
00000080: f309 04eb 0a24 1106 0c17 f80c 10fa 131e
00000090: 2612 dff0 1acb f008 b4e7 eaf8 2d00 e0e4
000000a0: 24ff f409 f5d6 d325 9908 cefc fcf4 ca93
000000b0: 15ed e40d c519 fc0d e108 f0ff 0af3 cfc7
000000c0: f9f8 1ef7 2813 17f2 2a22 2129 0c1c f02d
000000d0: f510 fae7 edfa fbee ed1f fa03 020f 0222
000000e0: 1014 d5fe 1cd6 fcf4 c903 ee18 f918 f9e8
000000f0: f307 f105 001f 36fc e621 f72b e319 f908
-14 32 -17 -19 -6 23 17 1
-38 28 -32 -26 -29 -30 48 -31
-26 33 -8 -7 -43 -6 16 3
-27 21 -117 -9 -63 -33 14 -100
-10 17 12 -11 -41 -10 15 -13
-16 13 -5 -22 -15 12 2 -14
-1 -42 5 -14 6 13 22 -9
25 18 -32 -29 20 -20 5 28
40 53 23 -9 31 19 38 26
-14 11 1 28 10 7 -7 -9
38 39 5 -1 10 -39 14 56
-74 -16 -61 -24 16 -11 -30 -127
62 2 -2 22 -55 -4 17 32
-13 3 -16 3 5 4 -26 -118
29 2 11 16 -36 17 13 18
-6 19 -18 25 30 -29 -6 -20
-13 9 4 -21 10 36 17 6
12 23 -8 12 16 -6 19 30
38 18 -33 -16 26 -53 -16 8
-76 -25 -22 -8 45 0 -32 -28
36 -1 -12 9 -11 -42 -45 37
-103 8 -50 -4 -4 -12 -54 -109
21 -19 -28 13 -59 25 -4 13
-31 8 -16 -1 10 -13 -49 -57
-7 -8 30 -9 40 19 23 -14
42 34 33 41 12 28 -16 45
-11 16 -6 -25 -19 -6 -5 -18
-19 31 -6 3 2 15 2 34
16 20 -43 -2 28 -42 -4 -12
-55 3 -18 24 -7 24 -7 -24
-13 7 -15 5 0 31 54 -4
-26 33 -9 43 -29 25 -7 8

sequential_1/conv2d_4/Conv2D i1 [48, 4, 4, 48]
00000000: 09bb 0905 fe23 d420 e2c0 10d7 f60c ce13
00000010: eeff d2ee 08eb 0228 f8ef 0acc 12d3 33d6
00000020: f9cc 2ee8 fd38 f6ec e604 090d f3d1 af08
00000030: fbfb fef9 0de3 3a21 e4c3 11f7 f910 20eb
00000040: 0c0e e509 f3e5 0015 f800 ffec f81f 41e1
00000050: 09f7 08fe e8eb f9b4 f6f1 fafa 1eed 04e1
00000060: e913 f903 fcd3 1920 eff5 f706 f4d4 52df
00000070: fcf4 f1ef ebfb 06f0 f106 ee0e 1e21 48f9
00000080: 1725 ef02 ead7 d5e2 1133 dbf0 16eb f4e1
00000090: 0cee ea03 3c12 01f3 e902 00f1 0cf0 1f09
000000a0: f70f f804 0f12 eaee 0e00 fe08 dfe7 23de
000000b0: 1325 cb02 12fd edf6 0e08 23f5 1426 e600
000000c0: 1fbe e6fe d11d e604 ebde 05c8 4311 fa0f
000000d0: fd1b 03f4 28f3 fae1 e40b fcbe e5c4 f5db
000000e0: 0ed7 f002 f4d8 04e8 03ef e2f2 02f9 81f1
000000f0: fcf9 f9f8 d8dc 100e f2d7 07d1 0dfd fd65
9 -69 9 5 -2 35 -44 32
-30 -64 16 -41 -10 12 -50 19
-18 -1 -46 -18 8 -21 2 40
-8 -17 10 -52 18 -45 51 -42
-7 -52 46 -24 -3 56 -10 -20
-26 4 9 13 -13 -47 -81 8
-5 -5 -2 -7 13 -29 58 33
-28 -61 17 -9 -7 16 32 -21
12 14 -27 9 -13 -27 0 21
-8 0 -1 -20 -8 31 65 -31
9 -9 8 -2 -24 -21 -7 -76
-10 -15 -6 -6 30 -19 4 -31
-23 19 -7 3 -4 -45 25 32
-17 -11 -9 6 -12 -44 82 -33
-4 -12 -15 -17 -21 -5 6 -16
-15 6 -18 14 30 33 72 -7
23 37 -17 2 -22 -41 -43 -30
17 51 -37 -16 22 -21 -12 -31
12 -18 -22 3 60 18 1 -13
-23 2 0 -15 12 -16 31 9
-9 15 -8 4 15 18 -22 -18
14 0 -2 8 -33 -25 35 -34
19 37 -53 2 18 -3 -19 -10
14 8 35 -11 20 38 -26 0
31 -66 -26 -2 -47 29 -26 4
-21 -34 5 -56 67 17 -6 15
-3 27 3 -12 40 -13 -6 -31
-28 11 -4 -66 -27 -60 -11 -37
14 -41 -16 2 -12 -40 4 -24
3 -17 -30 -14 2 -7 -127 -15
-4 -7 -7 -8 -40 -36 16 14
-14 -41 7 -47 13 -3 -3 101

sequential_1/conv2d_5/Conv2D i1 [64, 4, 4, 48]
00000000: e6e8 dbfa 07d0 0f42 e809 f710 b9e0 fcab
00000010: e2d7 15f2 e9f8 d8fb 0ae4 240d d005 fe12
00000020: e0f2 f9ff 14ed 12ee 14e4 e9fc d307 0598
00000030: dc05 d7d9 06d5 2543 f800 dad9 d9c6 0ee8
00000040: dbf3 3d00 d710 d207 0407 260b dd05 06e5
00000050: eb13 0701 baff 12de cfdc e311 ecfd 0cde
00000060: f7da 0ff5 a2db f720 3304 f3cc 0600 fb03
00000070: 2df3 15fe 02fb 0002 f7f7 11fd dc0b 0c2c
00000080: cfe4 03fa ebdd f5e8 e7e5 f703 f903 18ff
00000090: 331a 1015 0de2 0cce f304 0ef3 f400 f508
000000a0: 34f3 e702 4be8 0d02 fd15 17fe 1f10 f435
000000b0: 13ea fd0e 0ad0 0cf0 02d9 1ce9 24ff e512
000000c0: 0bde f0db f4e8 eb3e 15fa d3f8 d6fc dd08
000000d0: 08e7 411e fe04 f8f6 02e9 0afa dbf9 08ff
000000e0: 07d7 071d d211 0f0c f9f3 f602 16f7 f5df
000000f0: f3cd caf8 b0cf d800 0201 df0a 1408 f414
-26 -24 -37 -6 7 -48 15 66
-24 9 -9 16 -71 -32 -4 -85
-30 -41 21 -14 -23 -8 -40 -5
10 -28 36 13 -48 5 -2 18
-32 -14 -7 -1 20 -19 18 -18
20 -28 -23 -4 -45 7 5 -104
-36 5 -41 -39 6 -43 37 67
-8 0 -38 -39 -39 -58 14 -24
-37 -13 61 0 -41 16 -46 7
4 7 38 11 -35 5 6 -27
-21 19 7 1 -70 -1 18 -34
-49 -36 -29 17 -20 -3 12 -34
-9 -38 15 -11 -94 -37 -9 32
51 4 -13 -52 6 0 -5 3
45 -13 21 -2 2 -5 0 2
-9 -9 17 -3 -36 11 12 44
-49 -28 3 -6 -21 -35 -11 -24
-25 -27 -9 3 -7 3 24 -1
51 26 16 21 13 -30 12 -50
-13 4 14 -13 -12 0 -11 8
52 -13 -25 2 75 -24 13 2
-3 21 23 -2 31 16 -12 53
19 -22 -3 14 10 -48 12 -16
2 -39 28 -23 36 -1 -27 18
11 -34 -16 -37 -12 -24 -21 62
21 -6 -45 -8 -42 -4 -35 8
8 -25 65 30 -2 4 -8 -10
2 -23 10 -6 -37 -7 8 -1
7 -41 7 29 -46 17 15 12
-7 -13 -10 2 22 -9 -11 -33
-13 -51 -54 -8 -80 -49 -40 0
2 1 -33 10 20 8 -12 20

sequential_1/conv2d_6/Conv2D i1 [64, 4, 4, 64]
00000000: 1907 e5ca 4f1b f318 16d4 f6fd 06e3 18f5
00000010: 24e3 f434 08f4 2ffa 17eb 3dee 0ae8 fcf8
00000020: 21d6 fa11 d6e7 08ec 2ffe f7e4 f7c0 f80c
00000030: fee2 00db 20db 13ee e8ca 1e12 9cdd 1af5
00000040: ff1e e7c6 4dfa 08f6 2ccb 111a f6e8 2a0a
00000050: e316 d848 4134 f015 1122 35d3 e5ba 25f7
00000060: 13a4 00f9 2cb9 d30a 103e f8f2 fed7 2b19
00000070: 0ef8 f6f3 2bfb ec0f 05ea e1fc 9fef 10fb
00000080: ca23 34de 11d1 04fe 00ee de28 05d5 e0fd
00000090: 01c3 00fb ff0f 0b22 04f4 24fd ded8 1605
000000a0: 24f6 eab9 2bd5 0a16 d924 233b 01ea fbfe
000000b0: 10f2 002e 1e0e 2cc6 16e5 08df c020 1110
000000c0: e430 13d6 10e8 fa0c f8b9 181e f305 1f02
000000d0: feab 3745 e329 23ea d6fb 1817 db28 d600
000000e0: 2ef0 f6b7 291d 07f8 9e1f 0ece 04e7 ccfc
000000f0: 003f c907 0c8f 20d5 edc0 fef1 b303 1218
25 7 -27 -54 79 27 -13 24
22 -44 -10 -3 6 -29 24 -11
36 -29 -12 52 8 -12 47 -6
23 -21 61 -18 10 -24 -4 -8
33 -42 -6 17 -42 -25 8 -20
47 -2 -9 -28 -9 -64 -8 12
-2 -30 0 -37 32 -37 19 -18
-24 -54 30 18 -100 -35 26 -11
-1 30 -25 -58 77 -6 8 -10
44 -53 17 26 -10 -24 42 10
-29 22 -40 72 65 52 -16 21
17 34 53 -45 -27 -70 37 -9
19 -92 0 -7 44 -71 -45 10
16 62 -8 -14 -2 -41 43 25
14 -8 -10 -13 43 -5 -20 15
5 -22 -31 -4 -97 -17 16 -5
-54 35 52 -34 17 -47 4 -2
0 -18 -34 40 5 -43 -32 -3
1 -61 0 -5 -1 15 11 34
4 -12 36 -3 -34 -40 22 5
36 -10 -22 -71 43 -43 10 22
-39 36 35 59 1 -22 -5 -2
16 -14 0 46 30 14 44 -58
22 -27 8 -33 -64 32 17 16
-28 48 19 -42 16 -24 -6 12
-8 -71 24 30 -13 5 31 2
-2 -85 55 69 -29 41 35 -22
-42 -5 24 23 -37 40 -42 0
46 -16 -10 -73 41 29 7 -8
-98 31 14 -50 4 -25 -52 -4
0 63 -55 7 12 -113 32 -43
-19 -64 -2 -15 -77 3 18 24

sequential_1/conv2d_7/Conv2D i1 [64, 4, 4, 64]
00000000: fef2 0608 0205 003b e30d f004 fa03 fb04
00000010: ed1e 0106 faf2 f90b 0cda ffff fbf2 f5fc
00000020: 1afe f7f8 10fe 08f4 0a0e 0715 01dc 120a
00000030: faf1 080a f3de 0f05 07f8 00f8 f704 e110
00000040: f605 0a1e f3fe 0025 0e01 e90f 00f3 f6ee
00000050: 06f8 0bea 0dea f9e6 0203 0c03 e9fb 1a0c
00000060: 0a02 eb03 0df8 0302 0302 0221 f8e5 ff02
00000070: f2fb 050a f405 021d 1106 0ae9 f2fd f410
00000080: 14fd ff05 e9fe 0f20 f4ee f2f5 0e01 ff04
00000090: fdef f9f6 f4f4 f9e1 11f0 0de7 dee9 fe17
000000a0: 0afa f9e0 fefc 00fe 0e0d 0bf8 f7cb f0f3
000000b0: 00f4 f8fe e6fb 100d f304 0cff daf3 0908
000000c0: 08f3 ffd1 e0f5 08e0 0bfc f9de 1816 f8f9
000000d0: fbef faea fdfe 18fd 0af8 f703 d5ef 0ad9
000000e0: eae2 0ff5 fe07 050e 2ced faf2 f1e3 0703
000000f0: 13f3 00f5 e0d5 071f 0117 ff07 e702 de03
-2 -14 6 8 2 5 0 59
-29 13 -16 4 -6 3 -5 4
-19 30 1 6 -6 -14 -7 11
12 -38 -1 -1 -5 -14 -11 -4
26 -2 -9 -8 16 -2 8 -12
10 14 7 21 1 -36 18 10
-6 -15 8 10 -13 -34 15 5
7 -8 0 -8 -9 4 -31 16
-10 5 10 30 -13 -2 0 37
14 1 -23 15 0 -13 -10 -18
6 -8 11 -22 13 -22 -7 -26
2 3 12 3 -23 -5 26 12
10 2 -21 3 13 -8 3 2
3 2 2 33 -8 -27 -1 2
-14 -5 5 10 -12 5 2 29
17 6 10 -23 -14 -3 -12 16
20 -3 -1 5 -23 -2 15 32
-12 -18 -14 -11 14 1 -1 4
-3 -17 -7 -10 -12 -12 -7 -31
17 -16 13 -25 -34 -23 -2 23
10 -6 -7 -32 -2 -4 0 -2
14 13 11 -8 -9 -53 -16 -13
0 -12 -8 -2 -26 -5 16 13
-13 4 12 -1 -38 -13 9 8
8 -13 -1 -47 -32 -11 8 -32
11 -4 -7 -34 24 22 -8 -7
-5 -17 -6 -22 -3 -2 24 -3
10 -8 -9 3 -43 -17 10 -39
-22 -30 15 -11 -2 7 5 14
44 -19 -6 -14 -15 -29 7 3
19 -13 0 -11 -32 -43 7 31
1 23 -1 7 -25 2 -34 3

sequential_1/dense/MatMul i1 [64, 4480] scale=0.011831169 zero_point=0
00000000: 01fd 01fd fdfc 0101 0001 0102 01ff 0200
00000010: 0000 0001 fcff ffff fefb 02fd fdff 0002
00000020: 01ff 01fb ff02 01ff 0000 01fe 0201 fffe
00000030: 0202 fe02 fefd 0301 0001 00ff ff01 fffe
00000040: 02fe 0200 feff 0201 fd00 fffe 0200 0302
00000050: fefd 0100 fe00 fefd 0000 ff02 0103 fffd
00000060: fffd 01fe feff fffe 01fd 0300 feff ff02
00000070: fdfe fe01 fd01 00fc ff01 fffe 01fd 02fe
00000080: fdfe ff00 fd01 fdfd 02ff fffe 0102 fffd
00000090: ff00 00ff 0102 0002 0100 0201 fc00 0101
000000a0: 00fe fe01 00ff 0101 fdfc ff00 fefe fdfe
000000b0: fdfe 0101 fe00 fdfa 01ff 02fe fd01 ff00
000000c0: 0100 01ff 0100 fffa 00fd 01fd 00fd fffe
000000d0: fc00 01fe 0101 0300 ff02 ffff fd00 fcfd
000000e0: 0001 02fe fefe ff00 02fc fdfe fffc ff03
000000f0: fcfe 0100 fd01 fffc 02fc fe03 0101 ff00
0.011831169 -0.035493508 0.011831169 -0.035493508 -0.035493508 -0.047324676 0.011831169 0.011831169
0.0 0.011831169 0.011831169 0.023662338 0.011831169 -0.011831169 0.023662338 0.0
0.0 0.0 0.0 0.011831169 -0.047324676 -0.011831169 -0.011831169 -0.011831169
-0.023662338 -0.059155844 0.023662338 -0.035493508 -0.035493508 -0.011831169 0.0 0.023662338
0.011831169 -0.011831169 0.011831169 -0.059155844 -0.011831169 0.023662338 0.011831169 -0.011831169
0.0 0.0 0.011831169 -0.023662338 0.023662338 0.011831169 -0.011831169 -0.023662338
0.023662338 0.023662338 -0.023662338 0.023662338 -0.023662338 -0.035493508 0.035493508 0.011831169
0.0 0.011831169 0.0 -0.011831169 -0.011831169 0.011831169 -0.011831169 -0.023662338
0.023662338 -0.023662338 0.023662338 0.0 -0.023662338 -0.011831169 0.023662338 0.011831169
-0.035493508 0.0 -0.011831169 -0.023662338 0.023662338 0.0 0.035493508 0.023662338
-0.023662338 -0.035493508 0.011831169 0.0 -0.023662338 0.0 -0.023662338 -0.035493508
0.0 0.0 -0.011831169 0.023662338 0.011831169 0.035493508 -0.011831169 -0.035493508
-0.011831169 -0.035493508 0.011831169 -0.023662338 -0.023662338 -0.011831169 -0.011831169 -0.023662338
0.011831169 -0.035493508 0.035493508 0.0 -0.023662338 -0.011831169 -0.011831169 0.023662338
-0.035493508 -0.023662338 -0.023662338 0.011831169 -0.035493508 0.011831169 0.0 -0.047324676
-0.011831169 0.011831169 -0.011831169 -0.023662338 0.011831169 -0.035493508 0.023662338 -0.023662338
-0.035493508 -0.023662338 -0.011831169 0.0 -0.035493508 0.011831169 -0.035493508 -0.035493508
0.023662338 -0.011831169 -0.011831169 -0.023662338 0.011831169 0.023662338 -0.011831169 -0.035493508
-0.011831169 0.0 0.0 -0.011831169 0.011831169 0.023662338 0.0 0.023662338
0.011831169 0.0 0.023662338 0.011831169 -0.047324676 0.0 0.011831169 0.011831169
0.0 -0.023662338 -0.023662338 0.011831169 0.0 -0.011831169 0.011831169 0.011831169
-0.035493508 -0.047324676 -0.011831169 0.0 -0.023662338 -0.023662338 -0.035493508 -0.023662338
-0.035493508 -0.023662338 0.011831169 0.011831169 -0.023662338 0.0 -0.035493508 -0.070987016
0.011831169 -0.011831169 0.023662338 -0.023662338 -0.035493508 0.011831169 -0.011831169 0.0
0.011831169 0.0 0.011831169 -0.011831169 0.011831169 0.0 -0.011831169 -0.070987016
0.0 -0.035493508 0.011831169 -0.035493508 0.0 -0.035493508 -0.011831169 -0.023662338
-0.047324676 0.0 0.011831169 -0.023662338 0.011831169 0.011831169 0.035493508 0.0
-0.011831169 0.023662338 -0.011831169 -0.011831169 -0.035493508 0.0 -0.047324676 -0.035493508
0.0 0.011831169 0.023662338 -0.023662338 -0.023662338 -0.023662338 -0.011831169 0.0
0.023662338 -0.047324676 -0.035493508 -0.023662338 -0.011831169 -0.047324676 -0.011831169 0.035493508
-0.047324676 -0.023662338 0.011831169 0.0 -0.035493508 0.011831169 -0.011831169 -0.047324676
0.023662338 -0.047324676 -0.023662338 0.035493508 0.011831169 0.011831169 -0.011831169 0.0

sequential_1/dense_1/MatMul i1 [64, 64] scale=0.009939604 zero_point=0
00000000: 0fe7 11ee 0ff7 0e03 00df d8d5 eb06 00f4
00000010: d310 03ed f8da f8ef 1016 fdef 02f4 f507
00000020: 0ef7 1fea f4ff ee04 f4f6 f106 12fa 19ee
00000030: f3e1 f2f5 f303 09e9 d213 ebeb fc09 0e2c
00000040: 0c02 e4e7 0c06 f212 0f07 1206 e8fb e9fc
00000050: 0518 0a0a f8fc 06fc 0ffd fafc f2fa ef0a
00000060: f30e 0000 fd0c 12fe 0ff1 11c9 050a 0609
00000070: dfe4 03f0 d404 f802 1806 f814 18fc 1bf9
00000080: f2fc eadb f2ff 06fc eed5 ebe5 f20d fe0b
00000090: 00fb 13e3 d503 f700 ea08 ed13 17ee fd04
000000a0: f20a f3f2 eff6 f0ef 13df 19ea 05e2 f8ef
000000b0: dbfe 0bcd f412 f700 e8fa 05e9 e600 2014
000000c0: f909 efe1 e4fa f115 defa f4f4 e908 02f9
000000d0: e8e9 0ee1 21f1 f4eb f4ee faf3 02f1 190b
000000e0: ede7 09ff fbec 0305 11ff 02f9 0807 f210
000000f0: f5e0 faff 1dfb 0df2 fed3 07f7 edf5 040c
0.14909406 -0.24849011 0.16897328 -0.17891288 0.14909406 -0.08945644 0.13915446 0.029818814
0.0 -0.32800695 -0.39758417 -0.427403 -0.2087317 0.05963763 0.0 -0.11927526
-0.4472822 0.15903367 0.029818814 -0.18885249 -0.079516836 -0.37770498 -0.079516836 -0.16897328
0.15903367 0.21867129 -0.029818814 -0.16897328 0.019879209 -0.11927526 -0.109335646 0.06957723
0.13915446 -0.08945644 0.30812773 -0.21867129 -0.11927526 -0.009939604 -0.17891288 0.039758418
-0.11927526 -0.09939604 -0.14909406 0.05963763 0.17891288 -0.05963763 0.24849011 -0.17891288
-0.12921485 -0.30812773 -0.13915446 -0.109335646 -0.12921485 0.029818814 0.08945644 -0.2286109
-0.4572218 0.18885249 -0.2087317 -0.2087317 -0.039758418 0.08945644 0.13915446 0.43734258
0.11927526 0.019879209 -0.27830893 -0.24849011 0.11927526 0.05963763 -0.13915446 0.17891288
0.14909406 0.06957723 0.17891288 0.05963763 -0.23855051 -0.04969802 -0.2286109 -0.039758418
0.04969802 0.23855051 0.09939604 0.09939604 -0.079516836 -0.039758418 0.05963763 -0.039758418
0.14909406 -0.029818814 -0.05963763 -0.039758418 -0.13915446 -0.05963763 -0.16897328 0.09939604
-0.12921485 0.13915446 0.0 0.0 -0.029818814 0.11927526 0.17891288 -0.019879209
0.14909406 -0.14909406 0.16897328 -0.54667825 0.04969802 0.09939604 0.05963763 0.08945644
-0.32800695 -0.27830893 0.029818814 -0.15903367 -0.43734258 0.039758418 -0.079516836 0.019879209
0.23855051 0.05963763 -0.079516836 0.19879209 0.23855051 -0.039758418 0.26836932 -0.06957723
-0.13915446 -0.039758418 -0.21867129 -0.36776537 -0.13915446 -0.009939604 0.05963763 -0.039758418
-0.17891288 -0.427403 -0.2087317 -0.26836932 -0.13915446 0.12921485 -0.019879209 0.109335646
0.0 -0.04969802 0.18885249 -0.28824854 -0.427403 0.029818814 -0.08945644 0.0
-0.21867129 0.079516836 -0.18885249 0.18885249 0.2286109 -0.17891288 -0.029818814 0.039758418
-0.13915446 0.09939604 -0.12921485 -0.13915446 -0.16897328 -0.09939604 -0.15903367 -0.16897328
0.18885249 -0.32800695 0.24849011 -0.21867129 0.04969802 -0.29818812 -0.079516836 -0.16897328
-0.36776537 -0.019879209 0.109335646 -0.5069198 -0.11927526 0.17891288 -0.08945644 0.0
-0.23855051 -0.05963763 0.04969802 -0.2286109 -0.2584297 0.0 0.31806734 0.19879209
-0.06957723 0.08945644 -0.16897328 -0.30812773 -0.27830893 -0.05963763 -0.14909406 0.2087317
-0.33794656 -0.05963763 -0.11927526 -0.11927526 -0.2286109 0.079516836 0.019879209 -0.06957723
-0.23855051 -0.2286109 0.13915446 -0.30812773 0.32800695 -0.14909406 -0.11927526 -0.2087317
-0.11927526 -0.17891288 -0.05963763 -0.12921485 0.019879209 -0.14909406 0.24849011 0.109335646
-0.18885249 -0.24849011 0.08945644 -0.009939604 -0.04969802 -0.19879209 0.029818814 0.04969802
0.16897328 -0.009939604 0.019879209 -0.06957723 0.079516836 0.06957723 -0.13915446 0.15903367
-0.109335646 -0.31806734 -0.05963763 -0.009939604 0.28824854 -0.04969802 0.12921485 -0.13915446
-0.019879209 -0.4472822 0.06957723 -0.08945644 -0.18885249 -0.109335646 0.039758418 0.11927526

sequential_1/dense_2/MatMul i1 [1, 64] scale=0.0005923413 zero_point=0
00000000: e73c 9cfb bfe1 5c09 c585 3c02 0430 0211
00000010: 4aeb 1c13 b5f9 2eb6 e450 2504 c512 1f07
00000020: bd20 e708 2831 1bc9 25ca f0b1 d5e8 55f1
00000030: 279d f618 faea c6ba 1b16 20e7 c5cc db81
-0.014808533 0.035540476 -0.05923413 -0.0029617064 -0.038502183 -0.01836258 0.054495398 0.0053310716
-0.034948137 -0.072857976 0.035540476 0.0011846826 0.0023693652 0.028432382 0.0011846826 0.010069802
0.043833256 -0.012439167 0.016585557 0.011254485 -0.044425596 -0.004146389 0.027247699 -0.043833256
-0.016585557 0.047387302 0.021916628 0.0023693652 -0.034948137 0.010662143 0.01836258 0.004146389
-0.039686866 0.018954922 -0.014808533 0.0047387304 0.023693651 0.029024724 0.015993215 -0.03257877
0.021916628 -0.03198643 -0.009477461 -0.046794962 -0.025470676 -0.014216191 0.050349012 -0.008885119
0.023101311 -0.058641788 -0.0059234127 0.014216191 -0.0035540478 -0.013031509 -0.034355797 -0.04146389
0.015993215 0.013031509 0.018954922 -0.014808533 -0.034948137 -0.030801747 -0.021916628 -0.07522734
