common/src/models/hps_model/presence_0_320_240_1_20220117_140437_201k_26k_96ops.tflite (tflite, 318360 bytes, 11 tensors)

sequential_1/conv2d/Conv2D i1 [16, 4, 4, 1]
000000 01 07 06 06 01 03 08 92 a1 05 81 a9 05 04 ff 03
       1 7 6 6 1 3 8 -110 -95 5 -127 -87 5 4 -1 3
000010 a7 ef 3f 56 d0 81 0d 4a dd ac a6 20 eb 9b dc f2
       -89 -17 63 86 -48 -127 13 74 -35 -84 -90 32 -21 -101 -36 -14
000020 fb 02 fd 00 fd 02 03 81 00 83 00 ff ff 82 00 fd
       -5 2 -3 0 -3 2 3 -127 0 -125 0 -1 -1 -126 0 -3
000030 8c 00 07 07 81 05 e4 02 04 89 fe fe 0a 0a fd 05
       -116 0 7 7 -127 5 -28 2 4 -119 -2 -2 10 10 -3 5
000040 fc 0e 85 fe 03 13 9e 11 81 bd 06 fd 05 00 d1 f1
       -4 14 -123 -2 3 19 -98 17 -127 -67 6 -3 5 0 -47 -15
000050 fb e3 e5 d1 e5 dc ef 06 81 d9 05 23 fb 05 20 1d
       -5 -29 -27 -47 -27 -36 -17 6 -127 -39 5 35 -5 5 32 29
000060 f9 f8 00 a1 fd 00 11 08 06 81 11 c5 f9 06 f6 ba
       -7 -8 0 -95 -3 0 17 8 6 -127 17 -59 -7 6 -10 -70
000070 09 f9 e9 f9 ff cf b3 f0 f7 c8 81 fa f8 f5 01 0d
       9 -7 -23 -7 -1 -49 -77 -16 -9 -56 -127 -6 -8 -11 1 13
000080 0e cb 0d 11 f2 81 b9 0b 10 02 fa 07 9d 09 e8 eb
       14 -53 13 17 -14 -127 -71 11 16 2 -6 7 -99 9 -24 -21
000090 f6 00 bd 00 fe 01 a7 fd ff 00 fc 00 81 fc 01 fc
       -10 0 -67 0 -2 1 -89 -3 -1 0 -4 0 -127 -4 1 -4
0000a0 00 99 fe fe 00 02 ff 00 cb 02 00 fb ff 81 ff 00
       0 -103 -2 -2 0 2 -1 0 -53 2 0 -5 -1 -127 -1 0
0000b0 54 74 69 3e 4e 4f 1b fe 14 dc 9b aa e4 9d 81 b3
       84 116 105 62 78 79 27 -2 20 -36 -101 -86 -28 -99 -127 -77
0000c0 df aa de f3 fe a6 81 8e 14 e7 c9 d5 1a 1b ed d6
       -33 -86 -34 -13 -2 -90 -127 -114 20 -25 -55 -43 26 27 -19 -42
0000d0 fe fd 01 00 81 03 04 01 04 02 88 c8 8e fe 01 fc
       -2 -3 1 0 -127 3 4 1 4 2 -120 -56 -114 -2 1 -4
0000e0 2e 37 ff b6 40 3d e4 81 2e 32 d9 ae 16 15 e3 d2
       46 55 -1 -74 64 61 -28 -127 46 50 -39 -82 22 21 -29 -46
0000f0 0e 30 3b 1d 1b 66 7f 39 1d 52 58 22 0e 1a 10 03
       14 48 59 29 27 102 127 57 29 82 88 34 14 26 16 3

sequential_1/conv2d_1/Conv2D i1 [16, 4, 4, 16]
000000 14 24 35 01 e2 54 07 4c 13 f2 2f 18 56 11 d4 f6
       20 36 53 1 -30 84 7 76 19 -14 47 24 86 17 -44 -10
000010 14 38 2f ef 01 16 0b 0b 17 f6 2f c7 3e 17 fa 46
       20 56 47 -17 1 22 11 11 23 -10 47 -57 62 23 -6 70
000020 d2 d1 17 d8 de 1c e5 05 19 1f 18 fb 1b df 04 ff
       -46 -47 23 -40 -34 28 -27 5 25 31 24 -5 27 -33 4 -1
000030 ff 14 fd ee a1 d6 1a e4 f6 f0 1d fb d1 ee e8 dc
       -1 20 -3 -18 -95 -42 26 -28 -10 -16 29 -5 -47 -18 -24 -36
000040 45 44 10 31 f3 24 8d d8 32 f6 0d fc 33 dc c2 07
       69 68 16 49 -13 36 -115 -40 50 -10 13 -4 51 -36 -62 7
000050 11 9d 3c 24 cc 22 3b c1 e1 e0 fe d2 53 0d 11 48
       17 -99 60 36 -52 34 59 -63 -31 -32 -2 -46 83 13 17 72
000060 e2 d1 0a 08 d7 f8 ed 09 0c b5 f9 4b e4 e6 13 be
       -30 -47 10 8 -41 -8 -19 9 12 -75 -7 75 -28 -26 19 -66
000070 ec e5 0d dc f9 f8 c4 ee 14 e6 d3 9c ce fc 82 02
       -20 -27 13 -36 -7 -8 -60 -18 20 -26 -45 -100 -50 -4 -126 2
000080 c8 22 28 24 ef 13 29 04 f2 0c e5 b2 d1 cd d6 15
       -56 34 40 36 -17 19 41 4 -14 12 -27 -78 -47 -51 -42 21
000090 ff 9d 54 cb e4 02 56 98 c0 d4 fa 1d 27 d4 29 17
       -1 -99 84 -53 -28 2 86 -104 -64 -44 -6 29 39 -44 41 23
0000a0 a4 d6 b7 f6 ee ec cc e9 17 17 2e 9d c0 01 a3 aa
       -92 -42 -73 -10 -18 -20 -52 -23 23 23 46 -99 -64 1 -93 -86
0000b0 e9 fc c5 fa f7 ca f4 ce d3 b2 a8 fd ce e0 f1 0b
       -23 -4 -59 -6 -9 -54 -12 -50 -45 -78 -88 -3 -50 -32 -15 11
0000c0 10 1f 1f 00 27 10 01 30 20 19 e8 1c fe fc 05 22
       16 31 31 0 39 16 1 48 32 25 -24 28 -2 -4 5 34
0000d0 03 e3 7f 1e ff 0a 53 27 13 19 1b 20 03 1d 08 12
       3 -29 127 30 -1 10 83 39 19 25 27 32 3 29 8 18
0000e0 17 00 05 f0 22 2a 1b b7 ff 0f f5 cd c2 42 de a1
       23 0 5 -16 34 42 27 -73 -1 15 -11 -51 -62 66 -34 -95
0000f0 e6 d7 03 c3 06 b0 05 d9 cb c8 04 23 8a d5 30 08
       -26 -41 3 -61 6 -80 5 -39 -53 -56 4 35 -118 -43 48 8

sequential_1/conv2d_2/Conv2D i1 [16, 4, 4, 16]
000000 fb f1 2b f1 f4 43 20 1f fd 1b 28 35 f4 24 1f 23
       -5 -15 43 -15 -12 67 32 31 -3 27 40 53 -12 36 31 35
000010 02 f4 1e fc 0f 22 25 20 f7 0e 65 64 f9 da fc d0
       2 -12 30 -4 15 34 37 32 -9 14 101 100 -7 -38 -4 -48
000020 50 20 0f e1 d9 02 db 44 e6 29 03 09 ef da ed 37
       80 32 15 -31 -39 2 -37 68 -26 41 3 9 -17 -38 -19 55
000030 14 06 f9 e7 13 eb c9 28 d2 2a d7 e5 11 03 e7 42
       20 6 -7 -25 19 -21 -55 40 -46 42 -41 -27 17 3 -25 66
000040 23 29 09 ff ef 17 f5 f0 db 14 07 47 fb 36 09 04
       35 41 9 -1 -17 23 -11 -16 -37 20 7 71 -5 54 9 4
000050 09 2a ef 11 d5 d2 14 de 03 ee 43 3d e4 fb 01 fa
       9 42 -17 17 -43 -46 20 -34 3 -18 67 61 -28 -5 1 -6
000060 1b 03 aa 14 22 fd 17 5f 04 33 e1 f5 f2 03 f9 59
       27 3 -86 20 34 -3 23 95 4 51 -31 -11 -14 3 -7 89
000070 ef ff be 18 2a ff e5 15 f6 f9 be b6 09 27 0d 20
       -17 -1 -66 24 42 -1 -27 21 -10 -7 -66 -74 9 39 13 32
000080 21 41 12 f3 e4 03 1e da f2 d7 16 30 0a 07 f3 2b
       33 65 18 -13 -28 3 30 -38 -14 -41 22 48 10 7 -13 43
000090 0a 24 ed 06 fa f5 1e da 29 e0 1c 21 0a f7 1c 3c
       10 36 -19 6 -6 -11 30 -38 41 -32 28 33 10 -9 28 60
0000a0 ef d8 b3 e6 1a ed e8 25 16 07 af ec fb fe e8 42
       -17 -40 -77 -26 26 -19 -24 37 22 7 -81 -20 -5 -2 -24 66
0000b0 26 fd e5 08 16 ed 03 e3 dd d2 83 da fe 2f f3 81
       38 -3 -27 8 22 -19 3 -29 -35 -46 -125 -38 -2 47 -13 -127
0000c0 33 d9 17 17 d4 16 00 e0 2b d1 02 0b 07 07 f4 34
       51 -39 23 23 -44 22 0 -32 43 -47 2 11 7 7 -12 52
0000d0 2d cd fb e1 fc 4e 02 09 fe f4 fe 1d e9 ec f7 56
       45 -51 -5 -31 -4 78 2 9 -2 -12 -2 29 -23 -20 -9 86
0000e0 15 d7 ee 14 27 c3 14 00 9d fe d8 1a e5 1f fe c0
       21 -41 -18 20 39 -61 20 0 -99 -2 -40 26 -27 31 -2 -64
0000f0 30 d1 cf 08 16 c0 1d f8 a9 00 d8 f6 f5 1d f9 d5
       48 -47 -49 8 22 -64 29 -8 -87 0 -40 -10 -11 29 -7 -43

sequential_1/conv2d_3/Conv2D i1 [48, 4, 4, 16]
000000 46 e2 de 97 37 fc f0 0b d2 02 2f c3 ec ff 81 00
       70 -30 -34 -105 55 -4 -16 11 -46 2 47 -61 -20 -1 -127 0
000010 11 e7 ff 97 26 fc fe 19 f5 ff 10 d2 0c 13 cf 13
       17 -25 -1 -105 38 -4 -2 25 -11 -1 16 -46 12 19 -49 19
000020 23 e1 ef e7 23 0f f9 04 16 f0 f2 f3 ba 0a ee d2
       35 -31 -17 -25 35 15 -7 4 22 -16 -14 -13 -70 10 -18 -46
000030 f9 dd e9 e3 ef 21 06 11 15 e6 f1 0c 1d f9 ff 05
       -7 -35 -23 -29 -17 33 6 17 21 -26 -15 12 29 -7 -1 5
000040 1c ee e9 e7 28 cc e1 14 f9 e6 02 e3 a0 b5 d8 1a
       28 -18 -23 -25 40 -52 -31 20 -7 -26 2 -29 -96 -75 -40 26
000050 0f fd f6 02 05 d8 0b 10 14 00 e5 06 c7 f9 f9 e9
       15 -3 -10 2 5 -40 11 16 20 0 -27 6 -57 -7 -7 -23
000060 10 dd fb ea 00 bb fa ff 09 f2 f9 0e 2a 0a ff 06
       16 -35 -5 -22 0 -69 -6 -1 9 -14 -7 14 42 10 -1 6
000070 04 e5 0a 0f e7 88 fd e9 03 e3 fd 13 16 fe 19 18
       4 -27 10 15 -25 -120 -3 -23 3 -29 -3 19 22 -2 25 24
000080 fc e3 07 e4 18 cb e8 19 00 f2 e7 fc c6 1d f3 fb
       -4 -29 7 -28 24 -53 -24 25 0 -14 -25 -4 -58 29 -13 -5
000090 17 ed 09 02 f4 0c f5 ed 0b fe f1 10 f5 1b 1f d4
       23 -19 9 2 -12 12 -11 -19 11 -2 -15 16 -11 27 31 -44
0000a0 0e e1 0b f5 db ef ff ed fa f7 1e 09 1a 01 15 23
       14 -31 11 -11 -37 -17 -1 -19 -6 -9 30 9 26 1 21 35
0000b0 f5 df e2 0c e2 ce 11 cf fc ee 03 24 19 fc 1a 09
       -11 -33 -30 12 -30 -50 17 -49 -4 -18 3 36 25 -4 26 9
0000c0 12 e1 ee cf fd fc ed 02 ef 0c f2 f5 ef 1e f8 fd
       18 -31 -18 -49 -3 -4 -19 2 -17 12 -14 -11 -17 30 -8 -3
0000d0 1c e2 fb f8 f2 0c f9 fc f1 eb f4 0b 04 ff 0e fd
       28 -30 -5 -8 -14 12 -7 -4 -15 -21 -12 11 4 -1 14 -3
0000e0 07 ef fb f5 e6 f9 09 f3 f8 f7 00 11 ed 19 1a 13
       7 -17 -5 -11 -26 -7 9 -13 -8 -9 0 17 -19 25 26 19
0000f0 fa de fb f9 e9 e1 0c e8 fc d6 f3 23 f8 03 33 0e
       -6 -34 -5 -7 -23 -31 12 -24 -4 -42 -13 35 -8 3 51 14

sequential_1/conv2d_4/Conv2D i1 [48, 4, 4, 48]
000000 f6 07 1b 1e 88 f8 16 dc f5 03 e9 bd 17 d6 f5 c9
       -10 7 27 30 -120 -8 22 -36 -11 3 -23 -67 23 -42 -11 -55
000010 2d c2 98 c1 1d a7 19 e2 fd 10 fc c3 17 f6 29 22
       45 -62 -104 -63 29 -89 25 -30 -3 16 -4 -61 23 -10 41 34
000020 d5 f0 b0 e0 a6 cb 1d 37 ad 0d fe b9 eb c8 1a 14
       -43 -16 -80 -32 -90 -53 29 55 -83 13 -2 -71 -21 -56 26 20
000030 16 de cd ec 2d 1a fe 0a 22 23 05 1a 06 cb 09 b8
       22 -34 -51 -20 45 26 -2 10 34 35 5 26 6 -53 9 -72
000040 da cf a4 ea f5 c3 e9 2b 26 f1 0a d3 d1 df dc f9
       -38 -49 -92 -22 -11 -61 -23 43 38 -15 10 -45 -47 -33 -36 -7
000050 16 d0 c5 7d c1 51 1b ca b0 db 1a b8 09 f6 1d 1a
       22 -48 -59 125 -63 81 27 -54 -80 -37 26 -72 9 -10 29 26
000060 bd 17 e8 db b0 18 f1 c0 bb d8 f3 ce 15 e0 ec dd
       -67 23 -24 -37 -80 24 -15 -64 -69 -40 -13 -50 21 -32 -20 -35
000070 ea f1 ab cd e4 e6 09 c9 c1 0d e4 e0 d4 0b e5 18
       -22 -15 -85 -51 -28 -26 9 -55 -63 13 -28 -32 -44 11 -27 24
000080 f9 f8 e9 0b bf d4 fc 1e c9 d0 ca 9a 0a f6 f2 13
       -7 -8 -23 11 -65 -44 -4 30 -55 -48 -54 -102 10 -10 -14 19
000090 ed dd 03 d5 f3 dd 08 f5 e3 b3 bd c0 01 b9 e3 ca
       -19 -35 3 -43 -13 -35 8 -11 -29 -77 -67 -64 1 -71 -29 -54
0000a0 fb d1 9e e3 08 a2 e0 c8 bf e8 ec c3 cc 02 f2 fa
       -5 -47 -98 -29 8 -94 -32 -56 -65 -24 -20 -61 -52 2 -14 -6
0000b0 bb e7 cc e6 b4 dc a5 fb d4 e6 f3 c6 0e 12 0a df
       -69 -25 -52 -26 -76 -36 -91 -5 -44 -26 -13 -58 14 18 10 -33
0000c0 1a 18 1c b5 a4 be fe f2 f3 f5 d7 c4 07 f6 19 b9
       26 24 28 -75 -92 -66 -2 -14 -13 -11 -41 -60 7 -10 25 -71
0000d0 45 d5 bb 00 03 ea e1 c8 f2 52 bc cf 3c 17 ea d3
       69 -43 -69 0 3 -22 -31 -56 -14 82 -68 -49 60 23 -22 -45
0000e0 17 b0 ec d3 26 f6 38 0d f7 39 51 2d f4 aa de 12
       23 -80 -20 -45 38 -10 56 13 -9 57 81 45 -12 -86 -34 18
0000f0 53 eb ff e8 ef 25 00 fb 6f d7 fb d2 f6 dc f6 ab
       83 -21 -1 -24 -17 37 0 -5 111 -41 -5 -46 -10 -36 -10 -85

sequential_1/conv2d_5/Conv2D i1 [48, 4, 4, 48]
000000 f9 10 b8 69 fc fe f4 e9 cb 2e 11 ef f3 04 dd ff
       -7 16 -72 105 -4 -2 -12 -23 -53 46 17 -17 -13 4 -35 -1
000010 ca 0c 07 e5 22 e9 da 0c 01 fd e0 0c 02 ee d7 03
       -54 12 7 -27 34 -23 -38 12 1 -3 -32 12 2 -18 -41 3
000020 21 ed e9 05 f5 03 2a f5 d3 fa 0e f1 0d 09 f5 c8
       33 -19 -23 5 -11 3 42 -11 -45 -6 14 -15 13 9 -11 -56
000030 fa 00 d4 15 f5 df 09 09 da 02 13 d9 fd 0c ee e0
       -6 0 -44 21 -11 -33 9 9 -38 2 19 -39 -3 12 -18 -32
000040 d1 16 da e6 1e c2 ef 02 fd e6 f1 f8 0d ee dc 0d
       -47 22 -38 -26 30 -62 -17 2 -3 -26 -15 -8 13 -18 -36 13
000050 3d db e7 f7 de 02 4b 0c d7 fd 05 f8 2c fd 06 fd
       61 -37 -25 -9 -34 2 75 12 -41 -3 5 -8 44 -3 6 -3
000060 0e e2 f1 a1 f5 d4 19 11 df dd fc f2 ef 07 d3 06
       14 -30 -15 -95 -11 -44 25 17 -33 -35 -4 -14 -17 7 -45 6
000070 da 04 bc 02 01 cc eb ca f7 09 d9 0f ea fe da 05
       -38 4 -68 2 1 -52 -21 -54 -9 9 -39 15 -22 -2 -38 5
000080 28 d6 ca fd de ed 1b eb eb f6 fa cc 24 0a 07 16
       40 -42 -54 -3 -34 -19 27 -21 -21 -10 -6 -52 36 10 7 22
000090 0c f6 22 03 f9 ba 15 00 ba cc ce f9 00 02 e0 cc
       12 -10 34 3 -7 -70 21 0 -70 -52 -50 -7 0 2 -32 -52
0000a0 c5 05 c6 06 fc f9 e6 b9 fa f9 da 0d f1 dc d8 fa
       -59 5 -58 6 -4 -7 -26 -71 -6 -7 -38 13 -15 -36 -40 -6
0000b0 20 de f3 02 d3 0b f2 fb e3 ee 04 c2 09 f6 0e 2d
       32 -34 -13 2 -45 11 -14 -5 -29 -18 4 -62 9 -10 14 45
0000c0 ea 00 d2 0d fd fd 0c 09 dd b1 05 e1 f5 09 00 34
       -22 0 -46 13 -3 -3 12 9 -35 -79 5 -31 -11 9 0 52
0000d0 e0 19 f2 fd 48 0a e4 13 f9 0a e0 f4 07 3a 1d e0
       -32 25 -14 -3 72 10 -28 19 -7 10 -32 -12 7 58 29 -32
0000e0 21 fb f4 12 ed ea dc 03 d2 f6 01 04 ea 05 fa 0b
       33 -5 -12 18 -19 -22 -36 3 -46 -10 1 4 -22 5 -6 11
0000f0 fe f5 e1 e1 f1 f1 fe d1 e8 d5 db 0e 08 f8 df ff
       -2 -11 -31 -31 -15 -15 -2 -47 -24 -43 -37 14 8 -8 -33 -1

sequential_1/conv2d_6/Conv2D i1 [48, 4, 4, 48]
000000 df 28 da 17 df 2b 0c 0d 13 00 08 fa 1b 10 c6 f4
       -33 40 -38 23 -33 43 12 13 19 0 8 -6 27 16 -58 -12
000010 02 f5 e4 d6 d0 f6 00 fd ed 03 f5 fd 0d 05 f0 1d
       2 -11 -28 -42 -48 -10 0 -3 -19 3 -11 -3 13 5 -16 29
000020 06 0b f9 ee 10 1a f9 0b 04 fa 0a 0a ff 14 0b e6
       6 11 -7 -18 16 26 -7 11 4 -6 10 10 -1 20 11 -26
000030 e2 18 d7 f8 2d 16 20 eb ff e3 16 02 16 04 d5 11
       -30 24 -41 -8 45 22 32 -21 -1 -29 22 2 22 4 -43 17
000040 e6 fb cc f4 f6 0d 2e 14 2e 07 db 01 10 44 1b 09
       -26 -5 -52 -12 -10 13 46 20 46 7 -37 1 16 68 27 9
000050 e9 10 fd fb 31 0f f8 eb 27 f4 02 09 e4 0b f4 37
       -23 16 -3 -5 49 15 -8 -21 39 -12 2 9 -28 11 -12 55
000060 f1 17 06 f4 da 0d 10 d9 02 f7 20 f6 ea 06 e7 0d
       -15 23 6 -12 -38 13 16 -39 2 -9 32 -10 -22 6 -25 13
000070 1d 03 ce 02 1b 03 1c 11 10 ee 37 e2 03 1a 09 f0
       29 3 -50 2 27 3 28 17 16 -18 55 -30 3 26 9 -16
000080 dd 23 03 04 0e 03 e6 c5 0d f9 fe 0d e1 e8 c8 29
       -35 35 3 4 14 3 -26 -59 13 -7 -2 13 -31 -24 -56 41
000090 c2 20 f0 0b d1 eb fc e6 d3 ee ef 24 c2 25 e0 f0
       -62 32 -16 11 -47 -21 -4 -26 -45 -18 -17 36 -62 37 -32 -16
0000a0 01 21 00 01 06 0a fb fd 05 ea 04 d9 ee 0c ec 24
       1 33 0 1 6 10 -5 -3 5 -22 4 -39 -18 12 -20 36
0000b0 f2 11 1c 08 f4 21 f9 cb fa e6 03 13 15 cc c4 f4
       -14 17 28 8 -12 33 -7 -53 -6 -26 3 19 21 -52 -60 -12
0000c0 ce 0f fe 2a 01 1d 12 ef 0c 15 fd 15 ff 04 09 f5
       -50 15 -2 42 1 29 18 -17 12 21 -3 21 -1 4 9 -11
0000d0 fc 0b f7 d2 e1 e9 e7 ff 12 f7 09 1b f5 f1 05 22
       -4 11 -9 -46 -31 -23 -25 -1 18 -9 9 27 -11 -15 5 34
0000e0 0b 01 10 ff 09 2d 1e 02 12 c1 00 45 16 02 17 ed
       11 1 16 -1 9 45 30 2 18 -63 0 69 22 2 23 -19
0000f0 d6 17 e0 eb 0c f5 4e b5 ff cd 09 0f 06 f3 fe ff
       -42 23 -32 -21 12 -11 78 -75 -1 -51 9 15 6 -13 -2 -1

sequential_1/conv2d_7/Conv2D i1 [48, 4, 4, 48]
000000 f1 27 1f ed ee 09 27 06 05 11 08 e5 18 11 f5 c5
       -15 39 31 -19 -18 9 39 6 5 17 8 -27 24 17 -11 -59
000010 0f eb fc 0c d7 10 10 24 f3 2b fd 15 0c f4 1f 0f
       15 -21 -4 12 -41 16 16 36 -13 43 -3 21 12 -12 31 15
000020 fc ff 1a e8 06 07 23 df 05 07 f2 f5 f7 df 23 e7
       -4 -1 26 -24 6 7 35 -33 5 7 -14 -11 -9 -33 35 -25
000030 c4 24 11 e1 1d cd 14 10 03 ee ff 09 d5 0e ff ba
       -60 36 17 -31 29 -51 20 16 3 -18 -1 9 -43 14 -1 -70
000040 14 ef 1b d7 f2 03 ef e9 f1 14 1f 37 02 f3 09 ff
       20 -17 27 -41 -14 3 -17 -23 -15 20 31 55 2 -13 9 -1
000050 fe 28 e9 06 35 06 28 0e f0 00 c4 10 0e fc 1d d9
       -2 40 -23 6 53 6 40 14 -16 0 -60 16 14 -4 29 -39
000060 f7 1a 1b ee 08 fc 18 e8 c9 f7 ed 1d cf f3 d6 c8
       -9 26 27 -18 8 -4 24 -24 -55 -9 -19 29 -49 -13 -42 -56
000070 05 18 0a d8 14 ff de b8 ef fa c8 0a 32 ff ec d2
       5 24 10 -40 20 -1 -34 -72 -17 -6 -56 10 50 -1 -20 -46
000080 1d fd f0 e7 09 fd 26 fa f2 0c e5 eb d8 c5 e5 ee
       29 -3 -16 -25 9 -3 38 -6 -14 12 -27 -21 -40 -59 -27 -18
000090 b3 fb 18 0b f8 38 bd 0a 00 ea e9 14 c8 ee d9 02
       -77 -5 24 11 -8 56 -67 10 0 -22 -23 20 -56 -18 -39 2
0000a0 12 21 1a c0 0a dc e7 e7 ee d9 ab 0d 1e f6 eb cf
       18 33 26 -64 10 -36 -25 -25 -18 -39 -85 13 30 -10 -21 -49
0000b0 22 ea e9 c5 08 0c 00 3e 04 29 fe db 26 fc de e0
       34 -22 -23 -59 8 12 0 62 4 41 -2 -37 38 -4 -34 -32
0000c0 df 23 09 05 eb 26 ef 0b e0 ee 12 0d ed 0d e7 ee
       -33 35 9 5 -21 38 -17 11 -32 -18 18 13 -19 13 -25 -18
0000d0 e3 01 f0 fc d8 fa 06 f6 16 f8 f5 e1 ef f3 2e e9
       -29 1 -16 -4 -40 -6 6 -10 22 -8 -11 -31 -17 -13 46 -23
0000e0 f8 f3 ef ec f5 f3 0f ef e9 f3 52 e5 06 1b 13 0d
       -8 -13 -17 -20 -11 -13 15 -17 -23 -13 82 -27 6 27 19 13
0000f0 d9 1a fa 1b 14 cc f5 15 f1 e4 0b 27 e2 0e 17 d4
       -39 26 -6 27 20 -52 -11 21 -15 -28 11 39 -30 14 23 -44

sequential_1/dense/MatMul i1 [32, 3360] scale=0.008762039 zero_point=0
000000 f6 01 f2 e9 f0 01 fa f4 f9 11 ff ee f0 f5 09 fe
       -0.08762039 0.008762039 -0.12266855 -0.20152691 -0.14019263 0.008762039 -0.052572235 -0.10514447 -0.061334275 0.14895466 -0.008762039 -0.1577167 -0.14019263 -0.09638243 0.07885835 -0.017524078
000010 df f4 0d d5 f8 01 eb 0a 0f ff 14 f9 00 fd 09 f2
       -0.2891473 -0.10514447 0.11390651 -0.3767677 -0.070096314 0.008762039 -0.18400282 0.08762039 0.1314306 -0.008762039 0.17524078 -0.061334275 0.0 -0.026286118 0.07885835 -0.12266855
000020 04 08 fc 01 01 f9 0d ff f9 f5 f3 02 f5 eb ff 0a
       0.035048157 0.070096314 -0.035048157 0.008762039 0.008762039 -0.061334275 0.11390651 -0.008762039 -0.061334275 -0.09638243 -0.11390651 0.017524078 -0.09638243 -0.18400282 -0.008762039 0.08762039
000030 fc 0b fb e3 f1 f9 e9 ef f7 0f eb ea f2 f7 12 07
       -0.035048157 0.09638243 -0.043810196 -0.25409913 -0.1314306 -0.061334275 -0.20152691 -0.14895466 -0.07885835 0.1314306 -0.18400282 -0.19276486 -0.12266855 -0.07885835 0.1577167 0.061334275
000040 ea fe f3 d8 ff fc ef fe f8 f7 f3 12 f1 f7 07 f2
       -0.19276486 -0.017524078 -0.11390651 -0.35048157 -0.008762039 -0.035048157 -0.14895466 -0.017524078 -0.070096314 -0.07885835 -0.11390651 0.1577167 -0.1314306 -0.07885835 0.061334275 -0.12266855
000050 03 0e ff ee ef f9 06 eb 09 03 fc f7 df df 0f 02
       0.026286118 0.12266855 -0.008762039 -0.1577167 -0.14895466 -0.061334275 0.052572235 -0.18400282 0.07885835 0.026286118 -0.035048157 -0.07885835 -0.2891473 -0.2891473 0.1314306 0.017524078
000060 f6 00 f7 ed f7 fb e7 f4 02 0c 00 e6 f2 ea 19 08
       -0.08762039 0.0 -0.07885835 -0.16647875 -0.07885835 -0.043810196 -0.21905097 -0.10514447 0.017524078 0.10514447 0.0 -0.22781302 -0.12266855 -0.19276486 0.21905097 0.070096314
000070 ed ee e5 db 08 ec f0 f9 fa ee fd 00 09 f9 0b fc
       -0.16647875 -0.1577167 -0.23657507 -0.32419544 0.070096314 -0.17524078 -0.14019263 -0.061334275 -0.052572235 -0.1577167 -0.026286118 0.0 0.07885835 -0.061334275 0.09638243 -0.035048157
000080 fc 0b 02 f3 f0 00 05 ef 0f 04 f5 ec e0 f0 07 ff
       -0.035048157 0.09638243 0.017524078 -0.11390651 -0.14019263 0.0 0.043810196 -0.14895466 0.1314306 0.035048157 -0.09638243 -0.17524078 -0.28038526 -0.14019263 0.061334275 -0.008762039
000090 ff fb f9 f4 f6 00 ec e9 fc f2 ed f3 05 e6 12 0f
       -0.008762039 -0.043810196 -0.061334275 -0.10514447 -0.08762039 0.0 -0.17524078 -0.20152691 -0.035048157 -0.12266855 -0.16647875 -0.11390651 0.043810196 -0.22781302 0.1577167 0.1314306
0000a0 e5 f6 f0 e9 f8 f1 e6 ee 00 fa f8 fa 04 f4 08 ef
       -0.23657507 -0.08762039 -0.14019263 -0.20152691 -0.070096314 -0.1314306 -0.22781302 -0.1577167 0.0 -0.052572235 -0.070096314 -0.052572235 0.035048157 -0.10514447 0.070096314 -0.14895466
0000b0 f9 02 fc ed e9 ff 01 e8 02 08 f2 fc d3 ec 05 04
       -0.061334275 0.017524078 -0.035048157 -0.16647875 -0.20152691 -0.008762039 0.008762039 -0.21028894 0.017524078 0.070096314 -0.12266855 -0.035048157 -0.39429176 -0.17524078 0.043810196 0.035048157
0000c0 ff ff ff fd fe 0c f7 f3 ff e6 ed f7 01 f4 13 0a
       -0.008762039 -0.008762039 -0.008762039 -0.026286118 -0.017524078 0.10514447 -0.07885835 -0.11390651 -0.008762039 -0.22781302 -0.16647875 -0.07885835 0.008762039 -0.10514447 0.16647875 0.08762039
0000d0 e2 f2 f7 dc 0f f0 e9 fb 03 f1 ef fb 0d f9 0e ea
       -0.2628612 -0.12266855 -0.07885835 -0.3154334 0.1314306 -0.14019263 -0.20152691 -0.043810196 0.026286118 -0.1314306 -0.14895466 -0.043810196 0.11390651 -0.061334275 0.12266855 -0.19276486
0000e0 07 02 01 f2 fb 07 04 e2 f7 00 f3 f2 e0 ec 0a f3
       0.061334275 0.017524078 0.008762039 -0.12266855 -0.043810196 0.061334275 0.035048157 -0.2628612 -0.07885835 0.0 -0.11390651 -0.12266855 -0.28038526 -0.17524078 0.08762039 -0.11390651
0000f0 07 fd ff f7 fb 0c 0b f1 01 e9 ec e7 0a 0d 02 10
       0.061334275 -0.026286118 -0.008762039 -0.07885835 -0.043810196 0.10514447 0.09638243 -0.1314306 0.008762039 -0.20152691 -0.17524078 -0.21905097 0.08762039 0.11390651 0.017524078 0.14019263

sequential_1/dense_1/MatMul i1 [32, 32] scale=0.006583784 zero_point=0
000000 fe 03 fc 07 0d 0b fe ea 01 d8 1b 31 cd 0f e8 fa
       -0.013167568 0.019751351 -0.026335135 0.046086486 0.085589185 0.072421625 -0.013167568 -0.14484325 0.006583784 -0.26335135 0.17776217 0.3226054 -0.33577296 0.09875676 -0.15801081 -0.039502703
000010 e2 06 21 f4 ed 17 8f ed 26 08 f3 16 d4 fc fd 09
       -0.19751352 0.039502703 0.21726486 -0.079005405 -0.1250919 0.15142703 -0.7439676 -0.1250919 0.2501838 0.05267027 -0.085589185 0.14484325 -0.2896865 -0.026335135 -0.019751351 0.059254054
000020 15 11 13 21 fa fa 12 f4 13 d7 18 57 2d 0b fa b2
       0.13825946 0.11192432 0.1250919 0.21726486 -0.039502703 -0.039502703 0.11850811 -0.079005405 0.1250919 -0.26993513 0.15801081 0.5727892 0.29627028 0.072421625 -0.039502703 -0.51353514
000030 de db dd f8 05 0f 14 02 18 fd e9 de 22 e8 f9 e3
       -0.22384864 -0.2436 -0.23043244 -0.05267027 0.03291892 0.09875676 0.13167568 0.013167568 0.15801081 -0.019751351 -0.15142703 -0.22384864 0.22384864 -0.15801081 -0.046086486 -0.19092973
000040 0a df e5 e4 c7 cb 04 d8 e1 e9 12 06 d7 d2 00 f1
       0.06583784 -0.21726486 -0.17776217 -0.18434595 -0.37527567 -0.34894055 0.026335135 -0.26335135 -0.2040973 -0.15142703 0.11850811 0.039502703 -0.26993513 -0.30285406 0.0 -0.09875676
000050 e7 17 dc ab c9 04 fa 0b 0c 19 00 13 1f 1f bd fc
       -0.16459459 0.15142703 -0.23701622 -0.55962163 -0.3621081 0.026335135 -0.039502703 0.072421625 0.079005405 0.16459459 0.0 0.1250919 0.2040973 0.2040973 -0.4411135 -0.026335135
000060 10 09 29 10 f5 e0 36 f8 2c 1b e1 38 d3 e8 e4 ed
       0.10534054 0.059254054 0.26993513 0.10534054 -0.072421625 -0.21068108 0.35552433 -0.05267027 0.2896865 0.17776217 -0.2040973 0.3686919 -0.29627028 -0.15801081 -0.18434595 -0.1250919
000070 02 31 25 fb d9 2c ea f2 e2 fc eb db e8 1f e3 de
       0.013167568 0.3226054 0.2436 -0.03291892 -0.25676757 0.2896865 -0.14484325 -0.09217297 -0.19751352 -0.026335135 -0.13825946 -0.2436 -0.15801081 0.2040973 -0.19092973 -0.22384864
000080 ec f9 fb 29 f1 01 e3 05 00 1a fa dc 2d ff f3 3c
       -0.13167568 -0.046086486 -0.03291892 0.26993513 -0.09875676 0.006583784 -0.19092973 0.03291892 0.0 0.17117837 -0.039502703 -0.23701622 0.29627028 -0.006583784 -0.085589185 0.39502704
000090 f7 26 19 fc 01 d4 0d 0e 3f f9 d7 f0 0e 17 18 e5
       -0.059254054 0.2501838 0.16459459 -0.026335135 0.006583784 -0.2896865 0.085589185 0.09217297 0.41477838 -0.046086486 -0.26993513 -0.10534054 0.09217297 0.15142703 0.15801081 -0.17776217
0000a0 fa f6 dd e4 fa f9 f0 e0 dc 0a 02 e7 14 e6 f6 ee
       -0.039502703 -0.06583784 -0.23043244 -0.18434595 -0.039502703 -0.046086486 -0.10534054 -0.21068108 -0.23701622 0.06583784 0.013167568 -0.16459459 0.13167568 -0.17117837 -0.06583784 -0.11850811
0000b0 fa 0b 0e 1f d3 01 d9 19 fd 28 09 d8 f7 18 27 15
       -0.039502703 0.072421625 0.09217297 0.2040973 -0.29627028 0.006583784 -0.25676757 0.16459459 -0.019751351 0.26335135 0.059254054 -0.26335135 -0.059254054 0.15801081 0.25676757 0.13825946
0000c0 0a f4 12 0f 15 e9 da d2 0e 1b ec f4 e2 dd fa f3
       0.06583784 -0.079005405 0.11850811 0.09875676 0.13825946 -0.15142703 -0.2501838 -0.30285406 0.09217297 0.17776217 -0.13167568 -0.079005405 -0.19751352 -0.23043244 -0.039502703 -0.085589185
0000d0 fe 11 0a 11 ee 28 d2 0f 05 10 00 f9 23 e4 1c 07
       -0.013167568 0.11192432 0.06583784 0.11192432 -0.11850811 0.26335135 -0.30285406 0.09875676 0.03291892 0.10534054 0.0 -0.046086486 0.23043244 -0.18434595 0.18434595 0.046086486
0000e0 0b eb f2 c9 43 fb 00 b6 10 d3 1e 00 06 f2 b2 fa
       0.072421625 -0.13825946 -0.09217297 -0.3621081 0.4411135 -0.03291892 0.0 -0.4872 0.10534054 -0.29627028 0.19751352 0.0 0.039502703 -0.09217297 -0.51353514 -0.039502703
0000f0 f0 07 fa dd 17 fe eb 03 e8 c4 0a d8 16 25 16 f5
       -0.10534054 0.046086486 -0.039502703 -0.23043244 0.15142703 -0.013167568 -0.13825946 0.019751351 -0.15801081 -0.39502704 0.06583784 -0.26335135 0.14484325 0.2436 0.14484325 -0.072421625

sequential_1/dense_2/MatMul i1 [1, 32] scale=0.0022384557 zero_point=0
000000 31 6c 41 2d 27 d3 b9 ec 2d db 81 43 a7 b9 ec 22
       0.109684326 0.24175322 0.14549962 0.10073051 0.08729977 -0.10073051 -0.15893036 -0.044769116 0.10073051 -0.08282286 -0.28428388 0.14997654 -0.19922255 -0.15893036 -0.044769116 0.076107495
000010 21 27 cb cb bd 4b 92 5d e5 cc e9 4b f6 cd 48 ed
       0.073869035 0.08729977 -0.11863815 -0.11863815 -0.14997654 0.16788417 -0.24623013 0.20817637 -0.060438305 -0.1163997 -0.05148448 0.16788417 -0.022384558 -0.11416124 0.16116881 -0.04253066
