common/src/models/hps_model/presence_0_320_240_1_20220415_172145_201k_26k_96ops.tflite (tflite, 320256 bytes, 11 tensors)

sequential_1/dense_2/MatMul i1 [1, 32] scale=0.011039443 zero_point=0
-0.16559166 -0.12143388 0.06623666 -0.26494664 0.1766311 0.5298933 0.51885384 0.18767053
-0.2870255 -0.3532622 0.29806498 0.27598608 -0.19870998 -0.4084594 -0.1545522 0.9162738
0.3532622 0.16559166 0.32014385 0.09935499 0.39741996 -0.36430162 0.011039443 0.20974943
-0.20974943 -0.19870998 0.20974943 0.20974943 1.4020092 -0.09935499 -0.26494664 0.39741996
00000000: f1f5 06e8 1030 2f11 e6e0 1b19 eedb f253
00000010: 200f 1d09 24df 0113 edee 1313 7ff7 e824

sequential_1/dense_1/MatMul i1 [32, 32] scale=0.0053231507 zero_point=0
-0.37262055 -0.18098712 -0.22889549 0.09049356 -0.11710931 0.14904822 0.106463015 0.069200955
-0.28745013 0.106463015 0.0 0.14372507 -0.12775561 0.08517041 -0.101139866 0.053231508
-0.069200955 -0.17566398 -0.106463015 -0.13307877 -0.36197424 0.2608344 0.015969452 -0.28745013
0.19163342 0.101139866 -0.053231508 0.40455946 0.037262056 -0.23954178 0.15969452 0.34068164
0.14904822 -0.09049356 -0.19695657 -0.08517041 0.15437137 0.106463015 0.27148068 0.13307877
-0.20227973 -0.13307877 -0.27680382 0.30874273 0.15437137 0.042585205 0.37262055 0.09581671
0.063877806 -0.037262056 0.2608344 -0.2608344 0.0053231507 -0.053231508 0.026615754 0.07984726
-0.21292603 -0.0053231507 0.21824917 0.16501766 0.010646301 0.29277328 -0.20227973 0.015969452
-0.037262056 -0.11710931 -0.010646301 -0.27680382 -0.08517041 0.111786164 0.042585205 -0.20760287
0.07452411 -0.09049356 -0.3034196 0.101139866 0.15969452 0.15969452 -0.22889549 0.13307877
-0.058554657 -0.24486493 0.037262056 -0.29277328 0.20760287 0.08517041 0.07452411 0.026615754
-0.053231508 0.015969452 0.3566511 0.047908355 -0.12243246 -0.20227973 -0.282127 0.07984726
0.042585205 -0.101139866 0.28745013 -0.111786164 0.053231508 -0.18098712 0.14904822 0.037262056
0.22357233 -0.069200955 0.07452411 -0.14904822 0.13840191 0.11710931 -0.670717 -0.19163342
-0.13840191 0.17566398 0.12775561 -0.23421863 0.21824917 0.26615754 -0.11710931 0.29277328
-0.17566398 0.25551122 0.27148068 -0.26615754 0.3034196 0.27680382 0.021292603 0.047908355
-0.13307877 0.13307877 -0.13840191 0.08517041 -0.25018808 -0.23954178 0.23421863 -0.010646301
-0.19163342 0.29277328 -0.20760287 -0.047908355 0.111786164 0.18631028 -0.20227973 0.29277328
0.19695657 -0.069200955 -0.33003533 0.19163342 -0.13840191 -0.106463015 0.058554657 -0.12775561
0.015969452 -0.23421863 0.17034082 -0.12775561 -0.106463015 -0.17566398 -0.3034196 -0.15969452
0.22357233 -0.21292603 0.282127 0.010646301 0.31938905 0.015969452 -0.29277328 -0.047908355
0.21824917 -0.20760287 0.21292603 0.106463015 -0.25018808 0.2608344 0.16501766 -0.047908355
-0.07984726 0.026615754 0.21292603 -0.07984726 0.22889549 0.0053231507 -0.07452411 0.13307877
0.026615754 -0.13307877 -0.010646301 0.18631028 0.22889549 -0.07984726 0.2608344 0.19695657
-0.09581671 -0.22357233 -0.031938903 -0.16501766 0.0 0.19163342 -0.22357233 -0.3140659
-0.031938903 0.27148068 -0.27680382 0.0053231507 -0.0053231507 0.11710931 -0.20227973 -0.111786164
0.13307877 0.0053231507 -0.22357233 -0.058554657 -0.18098712 -0.13307877 0.18631028 -0.17566398
0.16501766 0.12243246 0.34600478 -0.35132796 0.010646301 -0.21824917 -0.14904822 -0.14904822
0.053231508 -0.069200955 -0.15969452 0.047908355 0.11710931 -0.25018808 0.101139866 0.015969452
-0.12243246 -0.13840191 0.19163342 0.0053231507 -0.010646301 0.08517041 -0.23954178 -0.29277328
-0.22357233 0.031938903 -0.09581671 0.18631028 0.12243246 0.16501766 -0.08517041 -0.36729738
-0.20227973 -0.09581671 -0.34600478 0.21824917 -0.2608344 0.0 0.063877806 -0.053231508
00000000: bade d511 ea1c 140d ca14 001b e810 ed0a
00000010: f3df ece7 bc31 03ca 2413 f64c 07d3 1e40
00000020: 1cef dbf0 1d14 3319 dae7 cc3a 1d08 4612
00000030: 0cf9 31cf 01f6 050f d8ff 291f 0237 da03
00000040: f9ea fecc f015 08d9 0eef c713 1e1e d519
00000050: f5d2 07c9 2710 0e05 f603 4309 e9da cb0f
00000060: 08ed 36eb 0ade 1c07 2af3 0ee4 1a16 82dc
00000070: e621 18d4 2932 ea37 df30 33ce 3934 0409
00000080: e719 e610 d1d3 2cfe dc37 d9f7 1523 da37
00000090: 25f3 c224 e6ec 0be8 03d4 20e8 ecdf c7e2
000000a0: 2ad8 3502 3c03 c9f7 29d9 2814 d131 1ff7
000000b0: f105 28f1 2b01 f219 05e7 fe23 2bf1 3125
000000c0: eed6 fae1 0024 d6c5 fa33 cc01 ff16 daeb
000000d0: 1901 d6f5 dee7 23df 1f17 41be 02d7 e4e4
000000e0: 0af3 e209 16d1 1303 e9e6 2401 fe10 d3c9
000000f0: d606 ee23 171f f0bb daee bf29 cf00 0cf6

sequential_1/dense/MatMul i1 [32, 3360] scale=0.0076360763 zero_point=0
-0.09163292 -0.106905065 0.030544305 0.22144622 0.08399684 0.11454114 -0.053452533 -0.1909019
0.16035761 0.09163292 0.04581646 0.09163292 0.0076360763 0.29780698 -0.1909019 -0.030544305
0.099268995 0.053452533 0.09163292 -0.030544305 -0.1909019 -0.015272153 -0.41234812 -0.04581646
0.0 0.106905065 -0.16035761 0.068724684 0.20617406 -0.03818038 0.16799368 -0.099268995
-0.12217722 0.20617406 -0.17562975 -0.106905065 -0.030544305 0.30544305 -0.07636076 0.12217722
-0.22908229 0.053452533 0.0 0.07636076 -0.030544305 0.099268995 0.099268995 -0.06108861
-0.015272153 0.030544305 0.22144622 0.106905065 -0.03818038 0.13744937 0.18326584 0.12217722
0.16799368 0.053452533 0.11454114 0.06108861 -0.0076360763 0.3818038 -0.13744937 -0.099268995
-0.053452533 -0.13744937 0.20617406 -0.11454114 -0.08399684 0.04581646 -0.30544305 -0.08399684
0.20617406 0.27489874 0.20617406 0.0076360763 0.19853799 -0.03818038 0.11454114 0.053452533
0.02290823 -0.099268995 0.030544305 -0.030544305 -0.053452533 0.106905065 0.0076360763 0.21381013
-0.16799368 0.015272153 0.13744937 0.27489874 0.02290823 0.04581646 0.04581646 -0.16799368
-0.06108861 0.106905065 0.32071522 0.02290823 -0.030544305 -0.11454114 0.19853799 0.1909019
-0.04581646 -0.030544305 0.17562975 0.02290823 -0.11454114 0.21381013 -0.15272152 -0.099268995
0.06108861 0.1909019 0.23671837 -0.3588956 -0.04581646 -0.11454114 -0.30544305 -0.030544305
0.02290823 0.16799368 -0.099268995 -0.099268995 0.15272152 -0.03818038 -0.02290823 -0.015272153
0.053452533 -0.16035761 0.106905065 -0.19853799 -0.106905065 0.16035761 -0.015272153 0.030544305
-0.08399684 0.030544305 0.11454114 0.26726267 -0.106905065 -0.106905065 -0.068724684 -0.12217722
-0.015272153 0.12217722 -0.015272153 0.099268995 -0.0076360763 0.02290823 0.17562975 0.2596266
0.015272153 0.16035761 0.030544305 0.16799368 -0.1298133 -0.053452533 -0.17562975 -0.02290823
-0.106905065 0.06108861 0.1298133 -0.11454114 -0.0076360763 -0.1298133 -0.04581646 -0.053452533
-0.06108861 0.099268995 -0.0076360763 -0.14508545 0.09163292 0.068724684 0.0 -0.015272153
0.09163292 0.068724684 0.08399684 0.0076360763 -0.07636076 0.31307912 -0.12217722 0.16035761
-0.11454114 -0.068724684 0.030544305 0.19853799 -0.19853799 -0.068724684 -0.04581646 -0.16799368
-0.053452533 0.14508545 0.11454114 -0.0076360763 0.03818038 0.053452533 0.1909019 0.06108861
-0.030544305 0.04581646 0.19853799 0.17562975 -0.16035761 -0.16799368 -0.09163292 0.099268995
-0.068724684 -0.068724684 -0.030544305 -0.04581646 0.0076360763 -0.04581646 0.02290823 0.030544305
-0.053452533 -0.04581646 -0.22144622 0.08399684 0.14508545 0.02290823 0.13744937 0.0076360763
-0.0076360763 0.06108861 0.030544305 -0.11454114 -0.03818038 0.14508545 -0.07636076 0.030544305
-0.0076360763 -0.068724684 0.07636076 0.2901709 -0.106905065 -0.03818038 -0.1298133 -0.1298133
-0.21381013 0.14508545 0.21381013 -0.13744937 0.053452533 0.0076360763 0.11454114 0.22908229
-0.03818038 0.11454114 0.28253484 0.12217722 -0.06108861 0.02290823 -0.1298133 -0.06108861
00000000: f4f2 041d 0b0f f9e7 150c 060c 0127 e7fc
00000010: 0d07 0cfc e7fe cafa 000e eb09 1bfb 16f3
00000020: f01b e9f2 fc28 f610 e207 000a fc0d 0df8
00000030: fe04 1d0e fb12 1810 1607 0f08 ff32 eef3
00000040: f9ee 1bf1 f506 d8f5 1b24 1b01 1afb 0f07
00000050: 03f3 04fc f90e 011c ea02 1224 0306 06ea
00000060: f80e 2a03 fcf1 1a19 fafc 1703 f11c ecf3
00000070: 0819 1fd1 faf1 d8fc 0316 f3f3 14fb fdfe
00000080: 07eb 0ee6 f215 fe04 f504 0f23 f2f2 f7f0
00000090: fe10 fe0d ff03 1722 0215 0416 eff9 e9fd
000000a0: f208 11f1 ffef faf9 f80d ffed 0c09 00fe
000000b0: 0c09 0b01 f629 f015 f1f7 041a e6f7 faea
000000c0: f913 0fff 0507 1908 fc06 1a17 ebea f40d
000000d0: f7f7 fcfa 01fa 0304 f9fa e30b 1303 1201
000000e0: ff08 04f1 fb13 f604 fff7 0a26 f2fb efef
000000f0: e413 1cee 0701 0f1e fb0f 2510 f803 eff8

sequential_1/conv2d_7/Conv2D i1 [48, 4, 4, 48]
-15 -9 29 12 -18 25 -73 22
21 -8 -28 -28 -32 14 30 -9
-37 20 45 -68 -52 13 -15 3
2 32 9 5 0 2 -37 53
4 -15 -29 -9 18 47 24 -15
-43 -8 5 -2 65 -23 52 -45
-25 22 1 13 -19 4 40 29
22 -26 -40 -71 13 -52 16 43
12 29 -20 -39 28 17 5 23
6 -28 16 52 25 35 -9 -52
23 18 4 11 -17 6 14 38
-22 -19 -8 -13 6 -22 31 -4
-12 23 26 50 -3 1 46 34
-43 4 2 -31 -32 34 -23 -6
14 -18 19 -12 -5 -11 45 18
37 20 -53 -18 26 14 -53 -66
-15 24 17 27 -5 -56 4 -65
-16 19 -16 27 30 -10 55 3
-27 -12 8 56 -15 -73 -21 -53
19 58 8 21 -63 7 10 -10
1 41 63 -37 -13 -35 -28 -75
31 13 -13 -14 -4 -32 8 9
-13 -3 -13 -5 -14 60 7 -7
22 -29 17 34 25 -35 66 22
23 -24 56 -23 27 35 -27 -43
0 -38 -84 13 9 -68 77 12
-22 4 7 -14 3 -33 -5 -15
-23 1 9 1 -36 29 -31 -114
-31 -25 -96 17 -25 9 29 -21
21 -33 -23 -80 11 14 -20 -23
-7 63 -45 9 -10 -11 -28 5
36 -31 -70 13 47 -37 -14 34
00000000: f1f7 1d0c ee19 b716 15f8 e4e4 e00e 1ef7
00000010: db14 2dbc cc0d f103 0220 0905 0002 db35
00000020: 04f1 e3f7 122f 18f1 d5f8 05fe 41e9 34d3
00000030: e716 010d ed04 281d 16e6 d8b9 0dcc 102b
00000040: 0c1d ecd9 1c11 0517 06e4 1034 1923 f7cc
00000050: 1712 040b ef06 0e26 eaed f8f3 06ea 1ffc
00000060: f417 1a32 fd01 2e22 d504 02e1 e022 e9fa
00000070: 0eee 13f4 fbf5 2d12 2514 cbee 1a0e cbbe
00000080: f118 111b fbc8 04bf f013 f01b 1ef6 3703
00000090: e5f4 0838 f1b7 ebcb 133a 0815 c107 0af6
000000a0: 0129 3fdb f3dd e4b5 1f0d f3f2 fce0 0809
000000b0: f3fd f3fb f23c 07f9 16e3 1122 19dd 4216
000000c0: 17e8 38e9 1b23 e5d5 00da ac0d 09bc 4d0c
000000d0: ea04 07f2 03df fbf1 e901 0901 dc1d e18e
000000e0: e1e7 a011 e709 1deb 15df e9b0 0b0e ece9
000000f0: f93f d309 f6f5 e405 24e1 ba0d 2fdb f222

sequential_1/conv2d_6/Conv2D i1 [48, 4, 4, 48]
-10 -28 10 19 -24 -9 -14 -4
49 53 18 0 -5 12 10 -95
-37 24 10 3 36 -44 -15 -40
-16 -42 -47 -3 -22 -58 -22 6
-18 90 36 29 27 9 -36 88
-48 -3 -3 39 35 0 -86 -18
-19 -49 -59 26 -17 -9 7 -1
10 9 -14 -36 -13 -27 -11 -89
-78 70 5 -19 36 -36 -1 -24
-47 -44 -3 -15 -25 -69 -14 -20
-13 52 -67 -45 -1 42 -16 36
-30 9 -68 -2 55 4 -35 12
27 -13 10 4 -25 -10 25 18
-28 -33 25 -80 -30 -24 -11 -47
-42 43 25 -29 -30 -54 6 -3
20 -31 -58 -56 8 3 3 -21
-39 66 -38 -64 -36 41 25 -28
-32 7 -60 -23 60 8 -18 26
10 -17 -4 84 -46 -26 43 -14
-18 -57 20 -104 -25 -35 8 0
-28 -31 29 19 11 -39 -47 46
31 -25 -64 -67 24 -52 37 13
-18 26 21 -14 26 35 27 -25
-6 -29 -11 -31 32 5 1 15
13 -54 21 -22 2 -38 -15 -1
-14 44 -1 2 29 0 41 -28
-18 -1 -2 15 41 -27 16 -40
-20 13 64 51 6 -13 -34 6
10 73 -16 86 32 13 -35 51
-85 -38 -16 43 30 -28 -44 1
41 -33 -51 -32 -25 -63 18 -5
-34 88 18 -63 -11 1 10 -76
00000000: f6e4 0a13 e8f7 f2fc 3135 1200 fb0c 0aa1
00000010: db18 0a03 24d4 f1d8 f0d6 d1fd eac6 ea06
00000020: ee5a 241d 1b09 dc58 d0fd fd27 2300 aaee
00000030: edcf c51a eff7 07ff 0a09 f2dc f3e5 f5a7
00000040: b246 05ed 24dc ffe8 d1d4 fdf1 e7bb f2ec
00000050: f334 bdd3 ff2a f024 e209 bcfe 3704 dd0c
00000060: 1bf3 0a04 e7f6 1912 e4df 19b0 e2e8 f5d1
00000070: d62b 19e3 e2ca 06fd 14e1 c6c8 0803 03eb
00000080: d942 dac0 dc29 19e4 e007 c4e9 3c08 ee1a
00000090: 0aef fc54 d2e6 2bf2 eec7 1498 e7dd 0800
000000a0: e4e1 1d13 0bd9 d12e 1fe7 c0bd 18cc 250d
000000b0: ee1a 15f2 1a23 1be7 fae3 f5e1 2005 010f
000000c0: 0dca 15ea 02da f1ff f22c ff02 1d00 29e4
000000d0: eeff fe0f 29e5 10d8 ec0d 4033 06f3 de06
000000e0: 0a49 f056 200d dd33 abda f02b 1ee4 d401
000000f0: 29df cde0 e7c1 12fb de58 12c1 f501 0ab4

sequential_1/conv2d_5/Conv2D i1 [48, 4, 4, 48]
-31 85 16 5 -8 36 18 -2
-14 -10 -11 2 13 -2 0 -17
4 13 -29 19 4 -22 13 -40
15 -4 -6 -9 -16 19 -11 6
-48 6 -33 3 -45 25 -1 5
-17 24 33 -11 -23 -10 12 35
-19 58 -4 2 11 31 23 -15
-14 -4 -20 1 -6 9 15 -25
-11 6 -11 13 -36 -9 26 -11
-14 -25 -20 -17 -6 -23 28 14
-12 3 -35 25 -44 -4 -2 9
3 26 36 -19 0 -8 -9 26
24 38 -13 9 -60 -8 24 2
-23 6 -28 22 5 7 16 -8
-22 -9 -12 3 -22 -3 39 -8
-5 -29 7 -44 -8 -32 21 3
-23 -8 -27 16 -29 15 -4 9
0 23 38 -39 29 -13 -14 51
15 127 2 31 8 -35 28 35
-8 -6 -38 14 17 -3 -38 -19
-35 -9 -32 -6 -23 -17 -19 -6
13 -15 10 -24 10 -2 12 7
-27 1 -16 12 -26 22 -8 1
26 3 21 -24 -18 -10 16 16
5 50 -8 22 0 56 12 20
-10 -15 -2 12 -9 17 18 -6
-5 11 -15 3 2 -17 27 -14
19 -10 -13 -31 -14 -2 -4 8
-13 27 -49 -3 -46 9 15 -4
-21 21 12 -18 0 -11 0 13
-53 52 -11 20 15 -2 -10 14
-12 -3 -57 16 8 21 15 -21
00000000: e155 1005 f824 12fe f2f6 f502 0dfe 00ef
00000010: 040d e313 04ea 0dd8 0ffc faf7 f013 f506
00000020: d006 df03 d319 ff05 ef18 21f5 e9f6 0c23
00000030: ed3a fc02 0b1f 17f1 f2fc ec01 fa09 0fe7
00000040: f506 f50d dcf7 1af5 f2e7 ecef fae9 1c0e
00000050: f403 dd19 d4fc fe09 031a 24ed 00f8 f71a
00000060: 1826 f309 c4f8 1802 e906 e416 0507 10f8
00000070: eaf7 f403 eafd 27f8 fbe3 07d4 f8e0 1503
00000080: e9f8 e510 e30f fc09 0017 26d9 1df3 f233
00000090: 0f7f 021f 08dd 1c23 f8fa da0e 11fd daed
000000a0: ddf7 e0fa e9ef edfa 0df1 0ae8 0afe 0c07
000000b0: e501 f00c e616 f801 1a03 15e8 eef6 1010
000000c0: 0532 f816 0038 0c14 f6f1 fe0c f711 12fa
000000d0: fb0b f103 02ef 1bf2 13f6 f3e1 f2fe fc08
000000e0: f31b cffd d209 0ffc eb15 0cee 00f5 000d
000000f0: cb34 f514 0ffe f60e f4fd c710 0815 0feb

sequential_1/conv2d_4/Conv2D i1 [48, 4, 4, 48]
18 1 0 -3 -39 25 -74 8
7 1 3 -6 26 -69 -43 -1
-10 -9 1 1 17 -16 18 62
-2 -21 3 34 -19 13 -20 -19
-33 -24 -3 -33 7 -10 -12 -26
20 -3 21 -2 -16 7 -9 -6
41 4 -21 -14 -4 31 -28 -3
14 25 -1 -41 11 -10 -13 -1
-39 3 -15 -14 11 -8 8 7
-17 -9 19 8 -57 36 22 -28
-17 -30 6 -28 -20 -36 -9 34
23 9 14 34 44 -3 -12 9
25 6 -6 9 2 3 -19 16
22 13 -17 16 12 13 -27 -17
30 10 -13 -41 8 -62 -8 -28
-54 0 31 13 -51 17 -9 -47
-2 -9 7 29 -62 -9 -15 -5
27 -21 5 0 37 -3 -12 -20
42 17 -21 -7 11 -14 -42 3
5 30 -17 7 12 -20 20 -10
8 37 10 -46 11 -38 -24 -14
-112 37 3 9 -25 30 -9 -41
2 -10 1 38 19 24 -81 -10
26 -21 -21 0 12 -6 16 -15
-8 9 -4 45 -6 13 -23 17
14 9 -34 -38 11 -33 -19 -10
-18 -21 11 2 38 14 15 -50
10 -10 -21 32 -8 -39 -12 -5
-8 -18 4 -14 3 8 -8 -54
-3 -11 -11 7 -44 2 -11 -21
-34 11 -7 8 -19 6 -20 -1
15 18 -30 -65 13 -5 0 26
00000000: 1201 00fd d919 b608 0701 03fa 1abb d5ff
00000010: f6f7 0101 11f0 123e feeb 0322 ed0d eced
00000020: dfe8 fddf 07f6 f4e6 14fd 15fe f007 f7fa
00000030: 2904 ebf2 fc1f e4fd 0e19 ffd7 0bf6 f3ff
00000040: d903 f1f2 0bf8 0807 eff7 1308 c724 16e4
00000050: efe2 06e4 ecdc f722 1709 0e22 2cfd f409
00000060: 1906 fa09 0203 ed10 160d ef10 0c0d e5ef
00000070: 1e0a f3d7 08c2 f8e4 ca00 1f0d cd11 f7d1
00000080: fef7 071d c2f7 f1fb 1beb 0500 25fd f4ec
00000090: 2a11 ebf9 0bf2 d603 051e ef07 0cec 14f6
000000a0: 0825 0ad2 0bda e8f2 9025 0309 e71e f7d7
000000b0: 02f6 0126 1318 aff6 1aeb eb00 0cfa 10f1
000000c0: f809 fc2d fa0d e911 0e09 deda 0bdf edf6
000000d0: eeeb 0b02 260e 0fce 0af6 eb20 f8d9 f4fb
000000e0: f8ee 04f2 0308 f8ca fdf5 f507 d402 f5eb
000000f0: de0b f908 ed06 ecff 0f12 e2bf 0dfb 001a

sequential_1/conv2d_3/Conv2D i1 [48, 4, 4, 16]
-60 -89 12 -61 -36 20 -33 -6
1 -3 0 -19 34 49 55 -92
43 -36 24 -30 21 70 -7 -7
56 -18 23 -70 5 56 56 32
52 -28 -12 35 -22 59 67 26
49 -59 101 -59 28 81 -23 -13
-43 -43 -3 10 -14 14 12 13
-15 12 57 -36 15 46 -68 -34
30 -10 8 12 21 3 21 -8
100 4 61 -40 -4 10 61 46
82 28 -127 11 70 17 -26 21
82 45 56 -29 5 26 77 -18
-26 -5 50 35 42 10 2 9
69 59 83 3 18 36 29 8
-8 -13 21 -10 -31 -36 -44 30
22 5 63 -41 29 4 18 -41
61 -1 -29 -23 -28 -6 1 19
1 -20 25 -34 -38 -29 -23 84
22 7 -62 19 -43 6 -20 26
14 -18 33 -43 -24 -38 0 11
-54 -13 28 -63 8 10 -52 22
16 40 -63 -18 -36 -45 -11 -3
-12 -38 6 -61 -8 -10 9 59
-24 -8 -20 -12 -12 -23 26 -29
16 25 -9 -25 -24 -3 28 32
-71 -19 28 -7 -38 15 0 -25
4 -6 46 -69 2 13 23 -8
-17 -41 -43 -10 12 -1 -13 -6
18 20 32 -30 -1 12 34 -6
-5 40 -20 -8 -42 -10 -21 -48
17 -4 -19 31 15 2 25 30
-23 1 0 -20 -38 8 17 -17
00000000: c4a7 0cc3 dc14 dffa 01fd 00ed 2231 37a4
00000010: 2bdc 18e2 1546 f9f9 38ee 17ba 0538 3820
00000020: 34e4 f423 ea3b 431a 31c5 65c5 1c51 e9f3
00000030: d5d5 fd0a f20e 0c0d f10c 39dc 0f2e bcde
00000040: 1ef6 080c 1503 15f8 6404 3dd8 fc0a 3d2e
00000050: 521c 810b 4611 e615 522d 38e3 051a 4dee
00000060: e6fb 3223 2a0a 0209 453b 5303 1224 1d08
00000070: f8f3 15f6 e1dc d41e 1605 3fd7 1d04 12d7
00000080: 3dff e3e9 e4fa 0113 01ec 19de dae3 e954
00000090: 1607 c213 d506 ec1a 0eee 21d5 e8da 000b
000000a0: caf3 1cc1 080a cc16 1028 c1ee dcd3 f5fd
000000b0: f4da 06c3 f8f6 093b e8f8 ecf4 f4e9 1ae3
000000c0: 1019 f7e7 e8fd 1c20 b9ed 1cf9 da0f 00e7
000000d0: 04fa 2ebb 020d 17f8 efd7 d5f6 0cff f3fa
000000e0: 1214 20e2 ff0c 22fa fb28 ecf8 d6f6 ebd0
000000f0: 11fc ed1f 0f02 191e e901 00ec da08 11ef

sequential_1/conv2d_2/Conv2D i1 [16, 4, 4, 16]
-2 -6 -11 -45 34 5 -13 -20
49 -21 -11 20 26 -21 24 -1
40 10 -3 50 0 8 -4 8
35 5 2 9 -3 -57 -27 -11
-1 11 -2 4 -5 47 14 -51
-7 2 43 -36 -7 -35 -94 7
-14 14 -3 -7 -5 64 31 -37
-43 14 43 8 20 11 3 -38
13 5 -10 -63 -15 -19 14 -66
3 -15 -14 0 4 -26 7 13
72 8 15 32 -46 3 -15 28
31 -16 2 -15 25 -39 -34 32
56 37 33 28 -31 18 -16 -42
42 -19 25 5 -11 -35 -116 18
-6 16 13 -1 -63 103 37 -45
-51 14 31 6 -30 4 -44 -26
-40 -4 0 33 28 -37 -3 -39
-17 11 -32 -30 -70 -13 20 12
1 12 -8 0 9 -45 18 15
4 15 -41 -4 3 -73 -38 7
16 6 23 55 1 -49 12 -12
15 -33 -7 -12 30 -78 -127 11
10 0 17 7 -77 22 14 -15
-1 -6 1 -30 14 -33 -42 -28
-3 11 -20 11 18 -46 -23 -25
0 21 -32 -8 -25 -5 20 -9
-24 35 -5 -6 -2 -53 -20 -8
-10 32 -48 32 -65 -43 -28 7
-19 18 6 59 -11 -63 -14 8
-3 -19 -21 -13 -32 -91 -85 19
15 10 12 2 -38 9 0 1
22 -27 16 2 9 -41 -42 10
00000000: fefa f5d3 2205 f3ec 31eb f514 1aeb 18ff
00000010: 280a fd32 0008 fc08 2305 0209 fdc7 e5f5
00000020: ff0b fe04 fb2f 0ecd f902 2bdc f9dd a207
00000030: f20e fdf9 fb40 1fdb d50e 2b08 140b 03da
00000040: 0d05 f6c1 f1ed 0ebe 03f1 f200 04e6 070d
00000050: 4808 0f20 d203 f11c 1ff0 02f1 19d9 de20
00000060: 3825 211c e112 f0d6 2aed 1905 f5dd 8c12
00000070: fa10 0dff c167 25d3 cd0e 1f06 e204 d4e6
00000080: d8fc 0021 1cdb fdd9 ef0b e0e2 baf3 140c
00000090: 010c f800 09d3 120f 040f d7fc 03b7 da07
000000a0: 1006 1737 01cf 0cf4 0fdf f9f4 1eb2 810b
000000b0: 0a00 1107 b316 0ef1 fffa 01e2 0edf d6e4
000000c0: fd0b ec0b 12d2 e9e7 0015 e0f8 e7fb 14f7
000000d0: e823 fbfa fecb ecf8 f620 d020 bfd5 e407
000000e0: ed12 063b f5c1 f208 fded ebf3 e0a5 ab13
000000f0: 0f0a 0c02 da09 0001 16e5 1002 09d7 d60a

sequential_1/conv2d_1/Conv2D i1 [16, 4, 4, 16]
4 -39 -8 0 -30 1 -10 -4
-14 -36 -46 -3 -5 -17 10 12
-1 -50 5 55 -18 -54 -30 28
-56 -52 -34 -15 -7 -52 51 -12
12 -92 3 55 -67 20 -37 3
3 -46 -4 -10 -11 -12 30 43
-10 -58 29 13 -74 38 -55 9
65 -50 -25 0 -24 -17 40 -1
5 -19 26 2 1 6 7 21
-10 -25 12 33 -14 -15 -25 9
4 -37 29 -8 -25 -42 5 86
-127 -23 -33 2 -56 -73 -39 24
-45 13 22 -30 14 -82 -31 59
-44 -3 22 -37 34 -51 3 30
-34 7 35 -36 8 -48 11 28
31 -22 55 13 -32 -15 16 71
31 -3 11 -9 11 -42 31 -23
28 -51 -3 34 -59 -41 -43 -8
-16 -34 4 -25 -37 52 -10 5
-65 -57 -37 7 -12 -30 -82 3
-45 7 50 2 21 -43 4 47
-75 -27 9 -43 -49 -15 -28 13
-5 12 34 18 -13 -68 40 -38
-52 -67 33 -12 -30 10 -51 43
5 -66 1 16 30 8 1 -34
-24 -48 13 -1 -73 -32 -15 18
24 -18 -30 9 28 -17 -26 -23
-4 -53 1 29 -59 -50 17 1
3 -24 27 18 29 3 7 14
-31 -26 5 -41 -55 -56 -18 43
20 -63 45 -1 27 -49 18 -23
32 -57 4 50 -68 -31 -16 40
00000000: 04d9 f800 e201 f6fc f2dc d2fd fbef 0a0c
00000010: ffce 0537 eeca e21c c8cc def1 f9cc 33f4
00000020: 0ca4 0337 bd14 db03 03d2 fcf6 f5f4 1e2b
00000030: f6c6 1d0d b626 c909 41ce e700 e8ef 28ff
00000040: 05ed 1a02 0106 0715 f6e7 0c21 f2f1 e709
00000050: 04db 1df8 e7d6 0556 81e9 df02 c8b7 d918
00000060: d30d 16e2 0eae e13b d4fd 16db 22cd 031e
00000070: de07 23dc 08d0 0b1c 1fea 370d e0f1 1047
00000080: 1ffd 0bf7 0bd6 1fe9 1ccd fd22 c5d7 d5f8
00000090: f0de 04e7 db34 f605 bfc7 db07 f4e2 ae03
000000a0: d307 3202 15d5 042f b5e5 09d5 cff1 e40d
000000b0: fb0c 2212 f3bc 28da ccbd 21f4 e20a cd2b
000000c0: 05be 0110 1e08 01de e8d0 0dff b7e0 f112
000000d0: 18ee e209 1cef e6e9 fccb 011d c5ce 1101
000000e0: 03e8 1b12 1d03 070e e1e6 05d7 c9c8 ee2b
000000f0: 14c1 2dff 1bcf 12e9 20c7 0432 bce1 f028

sequential_1/conv2d/Conv2D i1 [16, 4, 4, 1]
17 60 74 20 51 127 127 10
10 26 54 -6 -39 -16 -7 -17
-77 -2 80 -127 85 -89 -21 63
-13 -12 16 73 41 -65 22 24
7 -25 35 12 -36 -126 -48 -17
-34 -119 -127 1 32 26 -78 -4
68 102 64 86 73 122 62 -73
30 -72 -127 -62 -14 -56 -100 -113
-109 -111 52 -11 -127 -68 64 -32
-3 5 108 8 61 42 72 39
-44 -22 -44 -60 8 32 -32 -81
40 127 64 -15 -54 56 51 7
-82 -84 -109 22 20 -68 -64 5
81 -5 3 95 -22 65 127 80
75 92 -55 -8 69 -6 -127 -42
47 18 -64 -109 57 88 -4 -53
86 -19 11 95 -73 -3 34 127
-26 -97 -2 61 -83 -66 -27 -25
20 13 -77 111 13 -53 -35 -59
127 -54 21 40 -51 -93 118 -49
19 -45 -26 85 -88 -107 -68 1
-71 -15 65 58 8 -67 72 127
-74 -98 98 60 -69 -12 61 107
-73 -18 113 127 -40 -89 2 -20
17 47 -71 15 -2 13 -94 85
-24 -10 127 -70 9 7 -89 34
-53 -72 -78 -44 123 127 77 60
-67 -78 -82 80 -63 -5 76 -11
-10 82 127 85 36 35 94 61
-79 -107 -50 -49 -50 -13 -65 -78
-127 -10 -5 -11 7 -6 4 -19
2 22 0 -43 -108 -8 -7 -4
00000000: 113c 4a14 337f 7f0a 0a1a 36fa d9f0 f9ef
00000010: b3fe 5081 55a7 eb3f f3f4 1049 29bf 1618
00000020: 07e7 230c dc82 d0ef de89 8101 201a b2fc
00000030: 4466 4056 497a 3eb7 1eb8 81c2 f2c8 9c8f
00000040: 9391 34f5 81bc 40e0 fd05 6c08 3d2a 4827
00000050: d4ea d4c4 0820 e0af 287f 40f1 ca38 3307
00000060: aeac 9316 14bc c005 51fb 035f ea41 7f50
00000070: 4b5c c9f8 45fa 81d6 2f12 c093 3958 fccb
00000080: 56ed 0b5f b7fd 227f e69f fe3d adbe e5e7
00000090: 140d b36f 0dcb ddc5 7fca 1528 cda3 76cf
000000a0: 13d3 e655 a895 bc01 b9f1 413a 08bd 487f
000000b0: b69e 623c bbf4 3d6b b7ee 717f d8a7 02ec
000000c0: 112f b90f fe0d a255 e8f6 7fba 0907 a722
000000d0: cbb8 b2d4 7b7f 4d3c bdb2 ae50 c1fb 4cf5
000000e0: f652 7f55 2423 5e3d b195 cecf cef3 bfb2
000000f0: 81f6 fbf5 07fa 04ed 0216 00d5 94f8 f9fc
