common/src/models/hps_model/second_0_320_240_1_20220117_135512_201k_26k_96ops.tflite (tflite, 318360 bytes, 11 tensors)

sequential_1/conv2d/Conv2D i1 [16, 4, 4, 1]
00000000: f59d ef3c a981 e605 c6d8 c7d5 0df4 eb22
00000010: 81b9 9c81 ed3a 1007 f647 5deb b9de 3914
00000020: ad81 b1ef a595 e823 eb1f 635a 0d60 7c4e
00000030: 093d 7f5f 12fe 023f d1aa 89cc ecca 8cb1
00000040: 3558 1dfe 5b7f 3df4 3f2e 0ff3 f3f5 c5c4
00000050: d9cd c6dd aa89 b801 c681 ec2c e8ce 0405
00000060: 0322 2f45 e501 6746 f6ef 272e ae81 8bb9
00000070: 063b 6023 2564 7f37 1b33 2d27 1501 eb0b
00000080: 8681 aad2 342b 4238 4952 2122 e4e5 d2e6
00000090: 0bd6 cf1a 47d1 86bd 7f37 bcb0 5b6a 12f3
000000a0: 1c49 4722 4d7f 43ea 2d64 01a6 192c 00e2
000000b0: fed8 e5ef feb5 cddf 00ff 81a0 0822 bdbd
000000c0: ffe8 040c d101 4c49 b9e4 6e7f c5c7 3947
000000d0: b016 3e14 8115 4e37 87cd 4542 b9b6 162e
000000e0: ebaf 8681 111e cc8a 4c6b 39c7 3a5b 50ec
000000f0: 0660 34d7 2b34 f581 4dff 91a8 31cc 99fe
-11 -99 -17 60 -87 -127 -26 5
-58 -40 -57 -43 13 -12 -21 34
-127 -71 -100 -127 -19 58 16 7
-10 71 93 -21 -71 -34 57 20
-83 -127 -79 -17 -91 -107 -24 35
-21 31 99 90 13 96 124 78
9 61 127 95 18 -2 2 63
-47 -86 -119 -52 -20 -54 -116 -79
53 88 29 -2 91 127 61 -12
63 46 15 -13 -13 -11 -59 -60
-39 -51 -58 -35 -86 -119 -72 1
-58 -127 -20 44 -24 -50 4 5
3 34 47 69 -27 1 103 70
-10 -17 39 46 -82 -127 -117 -71
6 59 96 35 37 100 127 55
27 51 45 39 21 1 -21 11
-122 -127 -86 -46 52 43 66 56
73 82 33 34 -28 -27 -46 -26
11 -42 -49 26 71 -47 -122 -67
127 55 -68 -80 91 106 18 -13
28 73 71 34 77 127 67 -22
45 100 1 -90 25 44 0 -30
-2 -40 -27 -17 -2 -75 -51 -33
0 -1 -127 -96 8 34 -67 -67
-1 -24 4 12 -47 1 76 73
-71 -28 110 127 -59 -57 57 71
-80 22 62 20 -127 21 78 55
-121 -51 69 66 -71 -74 22 46
-21 -81 -122 -127 17 30 -52 -118
76 107 57 -57 58 91 80 -20
6 96 52 -41 43 52 -11 -127
77 -1 -111 -88 49 -52 -103 -2

sequential_1/conv2d_1/Conv2D i1 [16, 4, 4, 16]
00000000: 07ed 011a fd1c 1af8 020b 0101 f51c fb04
00000010: ebf0 0816 fffd 1c02 ff25 f705 110c fee0
00000020: fb18 14cb eded eb09 df28 12b3 f7fd 17c5
00000030: d215 2bdb 01ca e704 e136 13d5 ffe6 0c00
00000040: 0408 0b1e f610 faf7 f61f ff08 f507 10fe
00000050: 01f4 d331 19f5 1f06 082e 0c1c 0fe9 01eb
00000060: ef0d fe28 24d9 3325 15d4 f6fc 282b 1cef
00000070: d926 2d07 25ba 0215 2703 1ac4 1ed9 33f2
00000080: 03f7 0b1f f51e 00f0 2809 0a0a f218 020f
00000090: 1bfa 130f 0dff e3ed 2c37 001e daf0 340a
000000a0: 0bd7 042d f318 e70f 0217 023d eb01 8106
000000b0: f5ea e22c fa0d 0803 edf8 f51d ff04 ef0a
000000c0: 0def 080c 040d f5fb 1918 ff24 0a02 0c0a
000000d0: 0719 0cf7 0d11 0efc 2ee6 ef12 f41d 0e10
000000e0: 1603 37e1 ee20 01e7 2a32 e512 e7f7 10e3
000000f0: 12fd 1f04 f228 e5e3 252a 091b fe14 0ffe
7 -19 1 26 -3 28 26 -8
2 11 1 1 -11 28 -5 4
-21 -16 8 22 -1 -3 28 2
-1 37 -9 5 17 12 -2 -32
-5 24 20 -53 -19 -19 -21 9
-33 40 18 -77 -9 -3 23 -59
-46 21 43 -37 1 -54 -25 4
-31 54 19 -43 -1 -26 12 0
4 8 11 30 -10 16 -6 -9
-10 31 -1 8 -11 7 16 -2
1 -12 -45 49 25 -11 31 6
8 46 12 28 15 -23 1 -21
-17 13 -2 40 36 -39 51 37
21 -44 -10 -4 40 43 28 -17
-39 38 45 7 37 -70 2 21
39 3 26 -60 30 -39 51 -14
3 -9 11 31 -11 30 0 -16
40 9 10 10 -14 24 2 15
27 -6 19 15 13 -1 -29 -19
44 55 0 30 -38 -16 52 10
11 -41 4 45 -13 24 -25 15
2 23 2 61 -21 1 -127 6
-11 -22 -30 44 -6 13 8 3
-19 -8 -11 29 -1 4 -17 10
13 -17 8 12 4 13 -11 -5
25 24 -1 36 10 2 12 10
7 25 12 -9 13 17 14 -4
46 -26 -17 18 -12 29 14 16
22 3 55 -31 -18 32 1 -25
42 50 -27 18 -25 -9 16 -29
18 -3 31 4 -14 40 -27 -29
37 42 9 27 -2 20 15 -2

sequential_1/conv2d_2/Conv2D i1 [16, 4, 4, 16]
00000000: 68e4 0728 f103 0f08 c927 fb07 8421 58b0
00000010: af41 0f1c 102e 14f2 e5ff 060d 1144 adc9
00000020: c824 22c4 eae4 21e9 fcd6 0bd3 0e1e 9457
00000030: 1607 c4eb 0cf9 be53 d8f7 0ae7 e7e4 27ee
00000040: 68de 03ff dedc 01f5 cce7 feed 81be 30fa
00000050: 3723 2c12 b404 cef2 d625 1019 9d1a 32c2
00000060: a937 3924 19f0 10d3 ede2 ac2b 0bf9 ca33
00000070: 12d4 c5eb 3e0f 1e0f f902 4331 2df6 e919
00000080: a304 b3ee 4faf d713 0513 dbf1 31af 1c25
00000090: 5329 171e b2e7 fcfe e5dd 25d8 86d6 3999
000000a0: 0d2e 481e 90ef dcc7 effd 9fe5 f320 0cfe
000000b0: 10e5 0018 28f7 30ed 03f0 af20 ea2f 0ffc
000000c0: b50f cade 2de7 e5f5 dd01 ee3b 12cb e3e7
000000d0: f420 d131 383f fe2c e5dd 2c4e bedc 3ffb
000000e0: 3815 2edc cc0a ec16 17f6 13ff ae11 10e6
000000f0: 3fd0 25fa dafe d206 1e04 cad2 abff e830
104 -28 7 40 -15 3 15 8
-55 39 -5 7 -124 33 88 -80
-81 65 15 28 16 46 20 -14
-27 -1 6 13 17 68 -83 -55
-56 36 34 -60 -22 -28 33 -23
-4 -42 11 -45 14 30 -108 87
22 7 -60 -21 12 -7 -66 83
-40 -9 10 -25 -25 -28 39 -18
104 -34 3 -1 -34 -36 1 -11
-52 -25 -2 -19 -127 -66 48 -6
55 35 44 18 -76 4 -50 -14
-42 37 16 25 -99 26 50 -62
-87 55 57 36 25 -16 16 -45
-19 -30 -84 43 11 -7 -54 51
18 -44 -59 -21 62 15 30 15
-7 2 67 49 45 -10 -23 25
-93 4 -77 -18 79 -81 -41 19
5 19 -37 -15 49 -81 28 37
83 41 23 30 -78 -25 -4 -2
-27 -35 37 -40 -122 -42 57 -103
13 46 72 30 -112 -17 -36 -57
-17 -3 -97 -27 -13 32 12 -2
16 -27 0 24 40 -9 48 -19
3 -16 -81 32 -22 47 15 -4
-75 15 -54 -34 45 -25 -27 -11
-35 1 -18 59 18 -53 -29 -25
-12 32 -47 49 56 63 -2 44
-27 -35 44 78 -66 -36 63 -5
56 21 46 -36 -52 10 -20 22
23 -10 19 -1 -82 17 16 -26
63 -48 37 -6 -38 -2 -46 6
30 4 -54 -46 -85 -1 -24 48

sequential_1/conv2d_3/Conv2D i1 [48, 4, 4, 16]
00000000: 1b0d f4e5 212c 2513 e22c 26b0 2607 a8df
00000010: d9ee fbea 181f 1223 06d5 fcc6 2127 b3c2
00000020: f409 eaeb 04f7 e617 03c8 0b03 12ff cce1
00000030: 050d 1eff 0d18 f809 fbf4 f001 e51a 0cd8
00000040: 0be1 bcc8 24fa d70f d322 2cf2 fecb c3e3
00000050: 0abc eede 091d 1910 f2e7 11e7 d2d6 adae
00000060: c7f5 fdff fa20 0c01 12b1 f7ef 26ef d6c8
00000070: 1704 35f5 0b14 e618 ebdb 0c05 e9d5 eccb
00000080: 0003 e6d0 0ee4 f6fa 0920 22e3 fb09 cad9
00000090: 18c1 8107 19d8 dd17 e2f8 1400 fcc7 c59c
000000a0: f1f9 d4f6 2819 f924 f9bf 0303 09c5 ccbd
000000b0: e513 2010 0c1a ef1e f5d5 e8de 17d6 d4c7
000000c0: e60e fdda 0be3 2606 0d10 2d00 fb15 07db
000000d0: 14fe 1c11 0af7 3111 01f7 1700 f3d2 d8c9
000000e0: 0826 c218 3116 1718 fed8 0b0b 06fd fefe
000000f0: df00 d512 2722 0423 f5ce ecdf 18e7 1a01
27 13 -12 -27 33 44 37 19
-30 44 38 -80 38 7 -88 -33
-39 -18 -5 -22 24 31 18 35
6 -43 -4 -58 33 39 -77 -62
-12 9 -22 -21 4 -9 -26 23
3 -56 11 3 18 -1 -52 -31
5 13 30 -1 13 24 -8 9
-5 -12 -16 1 -27 26 12 -40
11 -31 -68 -56 36 -6 -41 15
-45 34 44 -14 -2 -53 -61 -29
10 -68 -18 -34 9 29 25 16
-14 -25 17 -25 -46 -42 -83 -82
-57 -11 -3 -1 -6 32 12 1
18 -79 -9 -17 38 -17 -42 -56
23 4 53 -11 11 20 -26 24
-21 -37 12 5 -23 -43 -20 -53
0 3 -26 -48 14 -28 -10 -6
9 32 34 -29 -5 9 -54 -39
24 -63 -127 7 25 -40 -35 23
-30 -8 20 0 -4 -57 -59 -100
-15 -7 -44 -10 40 25 -7 36
-7 -65 3 3 9 -59 -52 -67
-27 19 32 16 12 26 -17 30
-11 -43 -24 -34 23 -42 -44 -57
-26 14 -3 -38 11 -29 38 6
13 16 45 0 -5 21 7 -37
20 -2 28 17 10 -9 49 17
1 -9 23 0 -13 -46 -40 -55
8 38 -62 24 49 22 23 24
-2 -40 11 11 6 -3 -2 -2
-33 0 -43 18 39 34 4 35
-11 -50 -20 -33 24 -25 26 1

sequential_1/conv2d_4/Conv2D i1 [48, 4, 4, 48]
00000000: ccf5 1712 ffed 09d6 2e08 fb21 e108 0c0d
00000010: f719 0df5 ffec fd0d 2ee9 f60d f40c eed7
00000020: 16c9 10f7 dd33 091a f6d8 0d0c 0116 f508
00000030: dbd1 2205 0bdb d2fa 1b19 26f2 ef07 1cfc
00000040: dd05 01e0 f9ed 03f5 28f8 26ff ff05 0b02
00000050: 11cf 1011 2109 06f6 0904 eb02 f418 01f3
00000060: cab9 08fe f6dc caf8 ef22 04eb ddff 17fc
00000070: d00f 05eb dffd 05cc 1513 12fc ed02 05d6
00000080: 05d6 0af9 172a d8db 140f f704 fb11 1212
00000090: e7c6 d810 f208 af0d d312 f6f4 d8f9 fafa
000000a0: d4fc 15e5 dcf1 23ef 16ec 0cf0 def9 100a
000000b0: f609 0afc f31b d9e4 0214 df02 f9f1 df31
000000c0: e1cb 131a ffec d304 0425 1304 9ff8 1afd
000000d0: ddfd 13e0 12c8 20a3 ec04 210f 0a06 fcd8
000000e0: 28d6 0402 c1fe f7f8 f5f2 1afe 1919 fb23
000000f0: c9c6 e804 f0f5 f0fb fd19 00d6 a6fc 1df0
-52 -11 23 18 -1 -19 9 -42
46 8 -5 33 -31 8 12 13
-9 25 13 -11 -1 -20 -3 13
46 -23 -10 13 -12 12 -18 -41
22 -55 16 -9 -35 51 9 26
-10 -40 13 12 1 22 -11 8
-37 -47 34 5 11 -37 -46 -6
27 25 38 -14 -17 7 28 -4
-35 5 1 -32 -7 -19 3 -11
40 -8 38 -1 -1 5 11 2
17 -49 16 17 33 9 6 -10
9 4 -21 2 -12 24 1 -13
-54 -71 8 -2 -10 -36 -54 -8
-17 34 4 -21 -35 -1 23 -4
-48 15 5 -21 -33 -3 5 -52
21 19 18 -4 -19 2 5 -42
5 -42 10 -7 23 42 -40 -37
20 15 -9 4 -5 17 18 18
-25 -58 -40 16 -14 8 -81 13
-45 18 -10 -12 -40 -7 -6 -6
-44 -4 21 -27 -36 -15 35 -17
22 -20 12 -16 -34 -7 16 10
-10 9 10 -4 -13 27 -39 -28
2 20 -33 2 -7 -15 -33 49
-31 -53 19 26 -1 -20 -45 4
4 37 19 4 -97 -8 26 -3
-35 -3 19 -32 18 -56 32 -93
-20 4 33 15 10 6 -4 -40
40 -42 4 2 -63 -2 -9 -8
-11 -14 26 -2 25 25 -5 35
-55 -58 -24 4 -16 -11 -16 -5
-3 25 0 -42 -90 -4 29 -16

sequential_1/conv2d_5/Conv2D i1 [48, 4, 4, 48]
00000000: d4f6 081b f6e9 d700 fb04 0a16 dcdf 28f1
00000010: 12e7 e138 3834 f322 e27f b610 d6ff 09e4
00000020: 3a02 0e25 f41e b0f4 b73b ffb9 fb26 0f07
00000030: f1f0 f51d 2af5 ec0c f92c 1520 e312 e0fc
00000040: 0de1 1557 fd22 09e7 d943 c917 e201 07ce
00000050: 1108 330d fee3 c807 bd20 0ff1 de1c ffee
00000060: dadc c9e1 1911 f809 f016 3318 e3fe e3e7
00000070: ffe1 f92f f40d 14fc d615 cefe f9c6 1ade
00000080: 1703 0911 eb0c ed04 b525 c6e8 1224 18d3
00000090: eddd ebf5 1501 e206 211c 252c eafe e3e4
000000a0: f3f5 dd38 fe17 eef9 e51b 0afc e9e0 0ec7
000000b0: 28f7 fbf7 f1ff 1206 991f de03 e708 05e1
000000c0: c3f3 e420 0c1f ec07 1910 2825 e2df 1bed
000000d0: 03bb ef04 2f2d 021d e812 d826 f115 06e3
000000e0: 20f7 2f25 ec3b be13 912a edde fc22 1311
000000f0: bcd2 1bfd 2207 be10 1817 2a0d 09f3 0df5
-44 -10 8 27 -10 -23 -41 0
-5 4 10 22 -36 -33 40 -15
18 -25 -31 56 56 52 -13 34
-30 127 -74 16 -42 -1 9 -28
58 2 14 37 -12 30 -80 -12
-73 59 -1 -71 -5 38 15 7
-15 -16 -11 29 42 -11 -20 12
-7 44 21 32 -29 18 -32 -4
13 -31 21 87 -3 34 9 -25
-39 67 -55 23 -30 1 7 -50
17 8 51 13 -2 -29 -56 7
-67 32 15 -15 -34 28 -1 -18
-38 -36 -55 -31 25 17 -8 9
-16 22 51 24 -29 -2 -29 -25
-1 -31 -7 47 -12 13 20 -4
-42 21 -50 -2 -7 -58 26 -34
23 3 9 17 -21 12 -19 4
-75 37 -58 -24 18 36 24 -45
-19 -35 -21 -11 21 1 -30 6
33 28 37 44 -22 -2 -29 -28
-13 -11 -35 56 -2 23 -18 -7
-27 27 10 -4 -23 -32 14 -57
40 -9 -5 -9 -15 -1 18 6
-103 31 -34 3 -25 8 5 -31
-61 -13 -28 32 12 31 -20 7
25 16 40 37 -30 -33 27 -19
3 -69 -17 4 47 45 2 29
-24 18 -40 38 -15 21 6 -29
32 -9 47 37 -20 59 -66 19
-111 42 -19 -34 -4 34 19 17
-68 -46 27 -3 34 7 -66 16
24 23 42 13 9 -13 13 -11

sequential_1/conv2d_6/Conv2D i1 [48, 4, 4, 48]
00000000: 06e6 09fc fcee 0df8 04e8 f802 070c ef02
00000010: 25fd ff15 fbe9 23e3 0af4 05e0 08f3 1109
00000020: 1001 06f5 fbf1 07c6 e8dd 06fd f6fe fd0d
00000030: 0bf2 010a 0ffe 070f 05f7 f9fb f8f3 f6f7
00000040: 1b07 061a 0507 16e8 09e8 14de 07ea 1b0c
00000050: 0806 f7fc fae8 0eea f4f5 0603 edf8 fc05
00000060: 03fa 0507 0300 0908 09f5 f601 fafe fefd
00000070: 0fff ff06 0307 0bf0 0bfc 07f8 09f7 0608
00000080: 09fb f701 04f7 fdfb fc10 0002 f4fa f705
00000090: 07fb 0100 f7f8 ff01 01ff fc06 fb04 fcf1
000000a0: 0e0c fa05 0609 f9ef 06ef fbf8 0403 0307
000000b0: 02ff ebff 02fe f508 f606 03f5 fcfb 0005
000000c0: 1208 ff03 061d 0df4 d2f5 f0e5 02ee e212
000000d0: 0903 fa1a e0eb 0cf5 11e6 f8f8 01f4 0bed
000000e0: e407 07ff d6e9 df39 e507 d901 030a fe03
000000f0: 0d05 03e1 1ae5 100d fbfc ec04 fbf8 d8f7
6 -26 9 -4 -4 -18 13 -8
4 -24 -8 2 7 12 -17 2
37 -3 -1 21 -5 -23 35 -29
10 -12 5 -32 8 -13 17 9
16 1 6 -11 -5 -15 7 -58
-24 -35 6 -3 -10 -2 -3 13
11 -14 1 10 15 -2 7 15
5 -9 -7 -5 -8 -13 -10 -9
27 7 6 26 5 7 22 -24
9 -24 20 -34 7 -22 27 12
8 6 -9 -4 -6 -24 14 -22
-12 -11 6 3 -19 -8 -4 5
3 -6 5 7 3 0 9 8
9 -11 -10 1 -6 -2 -2 -3
15 -1 -1 6 3 7 11 -16
11 -4 7 -8 9 -9 6 8
9 -5 -9 1 4 -9 -3 -5
-4 16 0 2 -12 -6 -9 5
7 -5 1 0 -9 -8 -1 1
1 -1 -4 6 -5 4 -4 -15
14 12 -6 5 6 9 -7 -17
6 -17 -5 -8 4 3 3 7
2 -1 -21 -1 2 -2 -11 8
-10 6 3 -11 -4 -5 0 5
18 8 -1 3 6 29 13 -12
-46 -11 -16 -27 2 -18 -30 18
9 3 -6 26 -32 -21 12 -11
17 -26 -8 -8 1 -12 11 -19
-28 7 7 -1 -42 -23 -33 57
-27 7 -39 1 3 10 -2 3
13 5 3 -31 26 -27 16 13
-5 -4 -20 4 -5 -8 -40 -9

sequential_1/conv2d_7/Conv2D i1 [48, 4, 4, 48]
00000000: 7a0f 0482 caf2 e094 e6f4 c72e 0d98 e829
00000010: e3ed f581 d4e7 8ffa b595 e5a9 27e6 f3b5
00000020: c59e 165a c202 03cf 1c15 4c5c b610 f9df
00000030: 272c 05c3 eaca fb1d 06fd 0220 1cd7 fd0d
00000040: 53f6 f8ff dd1e ccf6 15d3 dfcb dacf c726
00000050: f3ce f7f6 d2f3 fef5 f813 eaf4 e4fc 18eb
00000060: fce6 11ea 11fb 0ee7 2627 06e5 e517 fff5
00000070: 52fe fcfc 000f 0d03 11e6 091c f5f4 ff15
00000080: faf5 e8f3 f8fe 1101 1018 05be dd25 10ef
00000090: 27fb 08e3 0202 fbd2 09e6 f502 06f9 1905
000000a0: d001 e3f5 f10a 1c06 04ff f722 fa0d 0309
000000b0: 14eb e2e6 1cfc dd00 f116 fc0f e7fb 16ee
000000c0: f602 0ba9 e506 d9d3 0e1f ba3d 00aa f322
000000d0: d32a 0fc3 d2ff ccfa c2fe dfd0 3d05 ecba
000000e0: abab 0d64 b1fb 50e8 ed32 3fef 9cf6 d4bd
000000f0: b8fb 1519 0ef7 11de f4e3 10f1 1309 e112
122 15 4 -126 -54 -14 -32 -108
-26 -12 -57 46 13 -104 -24 41
-29 -19 -11 -127 -44 -25 -113 -6
-75 -107 -27 -87 39 -26 -13 -75
-59 -98 22 90 -62 2 3 -49
28 21 76 92 -74 16 -7 -33
39 44 5 -61 -22 -54 -5 29
6 -3 2 32 28 -41 -3 13
83 -10 -8 -1 -35 30 -52 -10
21 -45 -33 -53 -38 -49 -57 38
-13 -50 -9 -10 -46 -13 -2 -11
-8 19 -22 -12 -28 -4 24 -21
-4 -26 17 -22 17 -5 14 -25
38 39 6 -27 -27 23 -1 -11
82 -2 -4 -4 0 15 13 3
17 -26 9 28 -11 -12 -1 21
-6 -11 -24 -13 -8 -2 17 1
16 24 5 -66 -35 37 16 -17
39 -5 8 -29 2 2 -5 -46
9 -26 -11 2 6 -7 25 5
-48 1 -29 -11 -15 10 28 6
4 -1 -9 34 -6 13 3 9
20 -21 -30 -26 28 -4 -35 0
-15 22 -4 15 -25 -5 22 -18
-10 2 11 -87 -27 6 -39 -45
14 31 -70 61 0 -86 -13 34
-45 42 15 -61 -46 -1 -52 -6
-62 -2 -33 -48 61 5 -20 -70
-85 -85 13 100 -79 -5 80 -24
-19 50 63 -17 -100 -10 -44 -67
-72 -5 21 25 14 -9 17 -34
-12 -29 16 -15 19 9 -31 18

sequential_1/dense/MatMul i1 [32, 3360] scale=0.006980803 zero_point=0
00000000: 1805 0226 0704 100a ff0f 05f8 02ff 1116
00000010: 050d 1502 0507 f3d8 160a 0a1a 1410 0406
00000020: 09e5 0003 1116 0716 e41b 04ea 0cfd 0afa
00000030: f4e3 0909 fd17 120d 0015 04fa 0a08 0313
00000040: 0110 0407 0afd fec5 0e0d 071d 2609 0dff
00000050: 0ad9 e810 060b 0817 f728 f1e4 05fc 0b0d
00000060: 09e4 11ff 0525 0310 0f0d 12ff 0209 0321
00000070: 0514 030c 1eff 02e7 020e f926 200d 0fff
00000080: 02e4 f008 f707 0a01 0420 fee2 f7ef 0d08
00000090: f4e1 0afe 0f23 f20a 080f 1a03 0307 0b15
000000a0: ff0b 0206 2405 ffea 050b f713 0f08 0206
000000b0: 07ec f0f8 24fb 00e7 fd0c fee7 f5e7 120d
000000c0: fdf7 04f8 0f12 ea05 0c08 2700 0bff 0afe
000000d0: 010b f807 1909 feed ff0a f10f 0a0b 0406
000000e0: 0df7 f9f7 0eff 01eb fa01 faec 00ef 0c12
000000f0: 0103 0cfc 0900 eefa 0309 2cf8 03fc 0904
0.16753927 0.034904014 0.013961606 0.2652705 0.04886562 0.027923211 0.111692846 0.06980803
-0.006980803 0.10471204 0.034904014 -0.055846423 0.013961606 -0.006980803 0.11867365 0.15357766
0.034904014 0.09075044 0.14659686 0.013961606 0.034904014 0.04886562 -0.09075044 -0.2792321
0.15357766 0.06980803 0.06980803 0.18150088 0.13961606 0.111692846 0.027923211 0.041884817
0.06282723 -0.18848167 0.0 0.020942409 0.11867365 0.15357766 0.04886562 0.15357766
-0.19546248 0.18848167 0.027923211 -0.15357766 0.083769634 -0.020942409 0.06980803 -0.041884817
-0.083769634 -0.20244329 0.06282723 0.06282723 -0.020942409 0.16055846 0.12565446 0.09075044
0.0 0.14659686 0.027923211 -0.041884817 0.06980803 0.055846423 0.020942409 0.13263525
0.006980803 0.111692846 0.027923211 0.04886562 0.06980803 -0.020942409 -0.013961606 -0.41186738
0.09773124 0.09075044 0.04886562 0.20244329 0.2652705 0.06282723 0.09075044 -0.006980803
0.06980803 -0.2722513 -0.16753927 0.111692846 0.041884817 0.07678883 0.055846423 0.16055846
-0.06282723 0.2792321 -0.10471204 -0.19546248 0.034904014 -0.027923211 0.07678883 0.09075044
0.06282723 -0.19546248 0.11867365 -0.006980803 0.034904014 0.2582897 0.020942409 0.111692846
0.10471204 0.09075044 0.12565446 -0.006980803 0.013961606 0.06282723 0.020942409 0.2303665
0.034904014 0.13961606 0.020942409 0.083769634 0.20942408 -0.006980803 0.013961606 -0.17452008
0.013961606 0.09773124 -0.04886562 0.2652705 0.22338569 0.09075044 0.10471204 -0.006980803
0.013961606 -0.19546248 -0.111692846 0.055846423 -0.06282723 0.04886562 0.06980803 0.006980803
0.027923211 0.22338569 -0.013961606 -0.20942408 -0.06282723 -0.11867365 0.09075044 0.055846423
-0.083769634 -0.21640489 0.06980803 -0.013961606 0.10471204 0.2443281 -0.09773124 0.06980803
0.055846423 0.10471204 0.18150088 0.020942409 0.020942409 0.04886562 0.07678883 0.14659686
-0.006980803 0.07678883 0.013961606 0.041884817 0.25130892 0.034904014 -0.006980803 -0.15357766
0.034904014 0.07678883 -0.06282723 0.13263525 0.10471204 0.055846423 0.013961606 0.041884817
0.04886562 -0.13961606 -0.111692846 -0.055846423 0.25130892 -0.034904014 0.0 -0.17452008
-0.020942409 0.083769634 -0.013961606 -0.17452008 -0.07678883 -0.17452008 0.12565446 0.09075044
-0.020942409 -0.06282723 0.027923211 -0.055846423 0.10471204 0.12565446 -0.15357766 0.034904014
0.083769634 0.055846423 0.2722513 0.0 0.07678883 -0.006980803 0.06980803 -0.013961606
0.006980803 0.07678883 -0.055846423 0.04886562 0.17452008 0.06282723 -0.013961606 -0.13263525
-0.006980803 0.06980803 -0.10471204 0.10471204 0.06980803 0.07678883 0.027923211 0.041884817
0.09075044 -0.06282723 -0.04886562 -0.06282723 0.09773124 -0.006980803 0.006980803 -0.14659686
-0.041884817 0.006980803 -0.041884817 -0.13961606 0.0 -0.11867365 0.083769634 0.12565446
0.006980803 0.020942409 0.083769634 -0.027923211 0.06282723 0.0 -0.12565446 -0.041884817
0.020942409 0.06282723 0.3071553 -0.055846423 0.020942409 -0.027923211 0.06282723 0.027923211

sequential_1/dense_1/MatMul i1 [32, 32] scale=0.009576835 zero_point=0
00000000: f212 dfea 0f08 e7dc 2a14 d7fa 1af2 f610
00000010: 07e8 2400 0d0b f6f4 a80d 12fb 0f10 2215
00000020: 1ae1 d414 eb05 f404 e0f1 24f0 0cd8 0908
00000030: ebfd 10eb e3f0 0af6 e211 12eb 03f1 fc1c
00000040: 1efd fc1a 1d1f 0c0d 150a 0cec f0e7 00e5
00000050: 0b0b f6ef 1fef e505 f105 0aec 15e9 0af8
00000060: 131e e801 1317 fcf3 0620 d4e8 1bd8 f6dc
00000070: f2f1 020d 0b11 030f 24e3 feee ef22 1c10
00000080: 10f0 050c 12e7 ec03 271c e91d e6dd 01dd
00000090: 1aed f510 e1f9 0613 1400 f801 db1c f7f1
000000a0: e608 f40e 0701 0be6 eeed 12e8 16ef 0fe7
000000b0: 08eb 1f19 0318 121c d9fa 1900 e9ca f4fb
000000c0: f91f ffed 16e0 cdee 0311 c719 f416 09c4
000000d0: 1ef0 1707 0ee2 1dfe c115 040e 08d1 f8fd
000000e0: fded 0813 1718 ecf6 57f6 e61f 14ef 10fb
000000f0: 18f1 03ef 1c0e 0ce8 c81a 0620 f9fe de4b
-0.13407569 0.17238303 -0.31603554 -0.21069036 0.14365253 0.07661468 -0.23942086 -0.34476605
0.40222704 0.1915367 -0.39265022 -0.05746101 0.2489977 -0.13407569 -0.09576835 0.15322936
0.06703784 -0.22984403 0.34476605 0.0 0.12449885 0.10534518 -0.09576835 -0.11492202
-0.84276146 0.12449885 0.17238303 -0.047884174 0.14365253 0.15322936 0.32561237 0.20111352
0.2489977 -0.29688188 -0.42138073 0.1915367 -0.20111352 0.047884174 -0.11492202 0.03830734
-0.3064587 -0.14365253 0.34476605 -0.15322936 0.11492202 -0.3830734 0.08619151 0.07661468
-0.20111352 -0.028730504 0.15322936 -0.20111352 -0.2777282 -0.15322936 0.09576835 -0.09576835
-0.28730506 0.16280618 0.17238303 -0.20111352 0.028730504 -0.14365253 -0.03830734 0.26815137
0.28730506 -0.028730504 -0.03830734 0.2489977 0.2777282 0.29688188 0.11492202 0.12449885
0.20111352 0.09576835 0.11492202 -0.1915367 -0.15322936 -0.23942086 0.0 -0.25857455
0.10534518 0.10534518 -0.09576835 -0.16280618 0.29688188 -0.16280618 -0.25857455 0.047884174
-0.14365253 0.047884174 0.09576835 -0.1915367 0.20111352 -0.2202672 0.09576835 -0.07661468
0.18195987 0.28730506 -0.22984403 0.009576835 0.18195987 0.2202672 -0.03830734 -0.12449885
0.05746101 0.3064587 -0.42138073 -0.22984403 0.25857455 -0.3830734 -0.09576835 -0.34476605
-0.13407569 -0.14365253 0.01915367 0.12449885 0.10534518 0.16280618 0.028730504 0.14365253
0.34476605 -0.2777282 -0.01915367 -0.17238303 -0.16280618 0.32561237 0.26815137 0.15322936
0.15322936 -0.15322936 0.047884174 0.11492202 0.17238303 -0.23942086 -0.1915367 0.028730504
0.37349656 0.26815137 -0.2202672 0.2777282 -0.2489977 -0.33518922 0.009576835 -0.33518922
0.2489977 -0.18195987 -0.10534518 0.15322936 -0.29688188 -0.06703784 0.05746101 0.18195987
0.1915367 0.0 -0.07661468 0.009576835 -0.35434288 0.26815137 -0.08619151 -0.14365253
-0.2489977 0.07661468 -0.11492202 0.13407569 0.06703784 0.009576835 0.10534518 -0.2489977
-0.17238303 -0.18195987 0.17238303 -0.22984403 0.21069036 -0.16280618 0.14365253 -0.23942086
0.07661468 -0.20111352 0.29688188 0.23942086 0.028730504 0.22984403 0.17238303 0.26815137
-0.37349656 -0.05746101 0.23942086 0.0 -0.2202672 -0.5171491 -0.11492202 -0.047884174
-0.06703784 0.29688188 -0.009576835 -0.18195987 0.21069036 -0.3064587 -0.48841858 -0.17238303
0.028730504 0.16280618 -0.5458796 0.23942086 -0.11492202 0.21069036 0.08619151 -0.5746101
0.28730506 -0.15322936 0.2202672 0.06703784 0.13407569 -0.28730506 0.2777282 -0.01915367
-0.60334057 0.20111352 0.03830734 0.13407569 0.07661468 -0.45011124 -0.07661468 -0.028730504
-0.028730504 -0.18195987 0.07661468 0.18195987 0.2202672 0.22984403 -0.1915367 -0.09576835
0.8331846 -0.09576835 -0.2489977 0.29688188 0.1915367 -0.16280618 0.15322936 -0.047884174
0.22984403 -0.14365253 0.028730504 -0.16280618 0.26815137 0.13407569 0.11492202 -0.22984403
-0.53630275 0.2489977 0.05746101 0.3064587 -0.06703784 -0.01915367 -0.32561237 0.7182626

sequential_1/dense_2/MatMul i1 [1, 32] scale=0.0034155236 zero_point=0
00000000: 21e7 077f 19dc e33b 68a7 aa90 1840 6fa8
00000010: d5e2 b7cf 4a9e 99d2 adc5 d8e7 5864 e7c8
0.11271228 -0.08538809 0.023908665 0.4337715 0.08538809 -0.12295885 -0.09905019 0.20151588
0.35521445 -0.3039816 -0.29373503 -0.38253865 0.08197257 0.21859351 0.37912312 -0.30056608
-0.14686751 -0.102465704 -0.24933322 -0.16736065 0.25274876 -0.3347213 -0.35179892 -0.15711409
-0.28348845 -0.20151588 -0.13662094 -0.08538809 0.30056608 0.34155235 -0.08538809 -0.19126932
