common/src/models/hps_model/second_0_320_240_1_20220416_163802_201k_26k_96ops.tflite (tflite, 320256 bytes, 11 tensors)

sequential_1/dense_2/MatMul i1 [1, 32] scale=0.004147226 zero_point=0
000000 50 b8 9c 28 3f e3 44 a2 42 b7 ac 61 54 30 35 29
       0.33177808 -0.29860026 -0.4147226 0.16588904 0.26127523 -0.12026955 0.28201136 -0.38983923 0.27371693 -0.3027475 -0.34836698 0.40228093 0.34836698 0.19906685 0.21980298 0.17003627
000010 17 67 28 13 81 dd f3 2f da 4a 34 1a d5 dd 34 52
       0.0953862 0.4271643 0.16588904 0.078797296 -0.5266977 -0.14515291 -0.053913936 0.19491962 -0.15759459 0.30689472 0.21565574 0.10782787 -0.17833072 -0.14515291 0.21565574 0.34007254

sequential_1/dense_1/MatMul i1 [32, 32] scale=0.009077446 zero_point=0
000000 13 e6 f5 fb d8 03 f2 ff df f4 fc 02 ee e8 fa 01
       0.17247146 -0.23601359 -0.0998519 -0.045387227 -0.36309782 0.027232338 -0.12708424 -0.009077446 -0.29955572 -0.10892935 -0.036309782 0.018154891 -0.16339402 -0.2178587 -0.054464675 0.009077446
000010 f9 12 eb 0b e6 e4 f3 f8 de e2 db f4 0e 04 0f 01
       -0.06354212 0.16339402 -0.19062635 0.0998519 -0.23601359 -0.25416848 -0.118006796 -0.072619565 -0.30863315 -0.27232337 -0.3358655 -0.10892935 0.12708424 0.036309782 0.13616168 0.009077446
000020 02 f3 16 f5 03 09 1d 0f 12 07 13 fa e4 fb ef dd
       0.018154891 -0.118006796 0.1997038 -0.0998519 0.027232338 0.08169701 0.2632459 0.13616168 0.16339402 0.06354212 0.17247146 -0.054464675 -0.25416848 -0.045387227 -0.15431657 -0.3177106
000030 20 09 19 fb 04 ed 08 1f 12 fc 14 02 04 17 12 25
       0.29047826 0.08169701 0.22693615 -0.045387227 0.036309782 -0.17247146 0.072619565 0.2814008 0.16339402 -0.036309782 0.18154891 0.018154891 0.036309782 0.20878124 0.16339402 0.3358655
000040 ee ec f4 0e 72 ff 02 ee 2e ed e8 0b 07 f8 01 f5
       -0.16339402 -0.18154891 -0.10892935 0.12708424 1.0348288 -0.009077446 0.018154891 -0.16339402 0.41756248 -0.17247146 -0.2178587 0.0998519 0.06354212 -0.072619565 0.009077446 -0.0998519
000050 dc 17 08 f5 1d e7 25 f8 1e ed 3f 09 0c f3 f1 f4
       -0.32678804 0.20878124 0.072619565 -0.0998519 0.2632459 -0.22693615 0.3358655 -0.072619565 0.27232337 -0.17247146 0.5718791 0.08169701 0.10892935 -0.118006796 -0.13616168 -0.10892935
000060 03 e5 09 14 fe 14 e6 2c f7 21 e5 f7 1d 06 02 fd
       0.027232338 -0.24509104 0.08169701 0.18154891 -0.018154891 0.18154891 -0.23601359 0.3994076 -0.08169701 0.29955572 -0.24509104 -0.08169701 0.2632459 0.054464675 0.018154891 -0.027232338
000070 04 0e 23 1e 1e 09 ef 0d 20 04 e4 0c 10 18 2b 05
       0.036309782 0.12708424 0.3177106 0.27232337 0.27232337 0.08169701 -0.15431657 0.118006796 0.29047826 0.036309782 -0.25416848 0.10892935 0.14523913 0.2178587 0.39033017 0.045387227
000080 f5 03 e8 fc e8 22 1c e3 05 16 00 0d 1c f2 e6 25
       -0.0998519 0.027232338 -0.2178587 -0.036309782 -0.2178587 0.30863315 0.25416848 -0.2632459 0.045387227 0.1997038 0.0 0.118006796 0.25416848 -0.12708424 -0.23601359 0.3358655
000090 f8 13 f1 eb 19 03 fc 15 e5 1f 05 f3 13 1e 1d ea
       -0.072619565 0.17247146 -0.13616168 -0.19062635 0.22693615 0.027232338 -0.036309782 0.19062635 -0.24509104 0.2814008 0.045387227 -0.118006796 0.17247146 0.27232337 0.2632459 -0.1997038
0000a0 14 fe 16 17 7d d3 25 c2 09 f3 0e 13 11 03 e0 ef
       0.18154891 -0.018154891 0.1997038 0.20878124 1.1346807 -0.40848505 0.3358655 -0.5628016 0.08169701 -0.118006796 0.12708424 0.17247146 0.15431657 0.027232338 -0.29047826 -0.15431657
0000b0 fd 0f e7 0e e3 f0 29 19 f4 de e5 d2 e7 03 dc 3a
       -0.027232338 0.13616168 -0.22693615 0.12708424 -0.2632459 -0.14523913 0.37217528 0.22693615 -0.10892935 -0.30863315 -0.24509104 -0.41756248 -0.22693615 0.027232338 -0.32678804 0.5264918
0000c0 14 e2 f7 e5 01 00 1f fa e4 0b e4 f7 ea e4 e1 fd
       0.18154891 -0.27232337 -0.08169701 -0.24509104 0.009077446 0.0 0.2814008 -0.054464675 -0.25416848 0.0998519 -0.25416848 -0.08169701 -0.1997038 -0.25416848 -0.2814008 -0.027232338
0000d0 f8 e7 ff e5 f6 f9 04 00 04 f8 06 02 f5 1b 0b eb
       -0.072619565 -0.22693615 -0.009077446 -0.24509104 -0.090774454 -0.06354212 0.036309782 0.0 0.036309782 -0.072619565 0.054464675 0.018154891 -0.0998519 0.24509104 0.0998519 -0.19062635
0000e0 f7 f1 22 1e 3a d7 ea e6 ff 0d 19 f0 fe 0a 1a fa
       -0.08169701 -0.13616168 0.30863315 0.27232337 0.5264918 -0.37217528 -0.1997038 -0.23601359 -0.009077446 0.118006796 0.22693615 -0.14523913 -0.018154891 0.090774454 0.23601359 -0.054464675
0000f0 0b e1 f1 08 03 ec 19 10 1c f3 06 f4 f3 f4 fc 20
       0.0998519 -0.2814008 -0.13616168 0.072619565 0.027232338 -0.18154891 0.22693615 0.14523913 0.25416848 -0.118006796 0.054464675 -0.10892935 -0.118006796 -0.10892935 -0.036309782 0.29047826

sequential_1/dense/MatMul i1 [32, 3360] scale=0.00890108 zero_point=0
000000 f9 00 fb fc f8 02 00 00 fe fc f7 03 fe 01 f8 fc
       -0.06230756 0.0 -0.044505402 -0.03560432 -0.07120864 0.01780216 0.0 0.0 -0.01780216 -0.03560432 -0.08010972 0.02670324 -0.01780216 0.00890108 -0.07120864 -0.03560432
000010 00 ff 04 fb fc fe fe fc fc f4 f5 fe fe f9 02 f9
       0.0 -0.00890108 0.03560432 -0.044505402 -0.03560432 -0.01780216 -0.01780216 -0.03560432 -0.03560432 -0.10681296 -0.09791188 -0.01780216 -0.01780216 -0.06230756 0.01780216 -0.06230756
000020 fd 0a ff ff fa fa 01 fe fd 00 fb fe 04 fe fd f9
       -0.02670324 0.089010805 -0.00890108 -0.00890108 -0.05340648 -0.05340648 0.00890108 -0.01780216 -0.02670324 0.0 -0.044505402 -0.01780216 0.03560432 -0.01780216 -0.02670324 -0.06230756
000030 00 fd 00 fd f6 00 f6 00 00 fc 01 fb 00 fd fd f9
       0.0 -0.02670324 0.0 -0.02670324 -0.089010805 0.0 -0.089010805 0.0 0.0 -0.03560432 0.00890108 -0.044505402 0.0 -0.02670324 -0.02670324 -0.06230756
000040 f8 01 07 fb fe 00 06 fc 06 fb fc ff f2 fe 00 fc
       -0.07120864 0.00890108 0.06230756 -0.044505402 -0.01780216 0.0 0.05340648 -0.03560432 0.05340648 -0.044505402 -0.03560432 -0.00890108 -0.12461512 -0.01780216 0.0 -0.03560432
000050 05 ff fd fb f3 01 fb ff f9 05 f4 04 04 f8 01 fe
       0.044505402 -0.00890108 -0.02670324 -0.044505402 -0.11571404 0.00890108 -0.044505402 -0.00890108 -0.06230756 0.044505402 -0.10681296 0.03560432 0.03560432 -0.07120864 0.00890108 -0.01780216
000060 00 ff fd f9 f9 ff fd fc ff fd 02 ff 02 05 fa f4
       0.0 -0.00890108 -0.02670324 -0.06230756 -0.06230756 -0.00890108 -0.02670324 -0.03560432 -0.00890108 -0.02670324 0.01780216 -0.00890108 0.01780216 0.044505402 -0.05340648 -0.10681296
000070 fd 04 ff f9 fa ff 04 00 0d fe f9 fe ff fd 04 02
       -0.02670324 0.03560432 -0.00890108 -0.06230756 -0.05340648 -0.00890108 0.03560432 0.0 0.11571404 -0.01780216 -0.06230756 -0.01780216 -0.00890108 -0.02670324 0.03560432 0.01780216
000080 f9 02 01 f9 f7 fe f2 fd fa fc f8 ff 04 f5 fc 03
       -0.06230756 0.01780216 0.00890108 -0.06230756 -0.08010972 -0.01780216 -0.12461512 -0.02670324 -0.05340648 -0.03560432 -0.07120864 -0.00890108 0.03560432 -0.09791188 -0.03560432 0.02670324
000090 f9 05 fb fc 00 02 f9 fc 00 02 ff fc ff 04 fb f7
       -0.06230756 0.044505402 -0.044505402 -0.03560432 0.0 0.01780216 -0.06230756 -0.03560432 0.0 0.01780216 -0.00890108 -0.03560432 -0.00890108 0.03560432 -0.044505402 -0.08010972
0000a0 fa 00 f8 f8 fb f8 ff 00 03 02 f6 fe 00 fe fc ff
       -0.05340648 0.0 -0.07120864 -0.07120864 -0.044505402 -0.07120864 -0.00890108 0.0 0.02670324 0.01780216 -0.089010805 -0.01780216 0.0 -0.01780216 -0.03560432 -0.00890108
0000b0 f7 02 fd fc f0 fd fb f9 f8 02 f4 fb 05 f6 f3 f4
       -0.08010972 0.01780216 -0.02670324 -0.03560432 -0.14241728 -0.02670324 -0.044505402 -0.06230756 -0.07120864 0.01780216 -0.10681296 -0.044505402 0.044505402 -0.089010805 -0.11571404 -0.10681296
0000c0 fb 07 01 f9 fe 04 fc ff f8 fc fc ff ff ed fd ff
       -0.044505402 0.06230756 0.00890108 -0.06230756 -0.01780216 0.03560432 -0.03560432 -0.00890108 -0.07120864 -0.03560432 -0.03560432 -0.00890108 -0.00890108 -0.16912052 -0.02670324 -0.00890108
0000d0 f1 ff 01 f7 01 ff 01 f8 00 01 ff fc 02 ff fa 00
       -0.1335162 -0.00890108 0.00890108 -0.08010972 0.00890108 -0.00890108 0.00890108 -0.07120864 0.0 0.00890108 -0.00890108 -0.03560432 0.01780216 -0.00890108 -0.05340648 0.0
0000e0 fa fe fd fc ec 06 fb fa f7 01 f6 fd fe fc fc fe
       -0.05340648 -0.01780216 -0.02670324 -0.03560432 -0.17802161 0.05340648 -0.044505402 -0.05340648 -0.08010972 0.00890108 -0.089010805 -0.02670324 -0.01780216 -0.03560432 -0.03560432 -0.01780216
0000f0 fb 05 f9 ff ff 00 f9 fe 01 fe f8 00 ff fb fb 06
       -0.044505402 0.044505402 -0.06230756 -0.00890108 -0.00890108 0.0 -0.06230756 -0.01780216 0.00890108 -0.01780216 -0.07120864 0.0 -0.00890108 -0.044505402 -0.044505402 0.05340648

sequential_1/conv2d_7/Conv2D i1 [48, 4, 4, 48]
000000 f4 9b ed fa e5 81 07 f8 2b dc fc da d8 20 fa 09
       -12 -101 -19 -6 -27 -127 7 -8 43 -36 -4 -38 -40 32 -6 9
000010 02 d6 03 14 f5 f0 dc d6 e3 d5 91 bf c5 ec 23 e2
       2 -42 3 20 -11 -16 -36 -42 -29 -43 -111 -65 -59 -20 35 -30
000020 a9 fe ff d6 fe c1 e7 d7 fd 22 ea e5 90 eb 98 0c
       -87 -2 -1 -42 -2 -63 -25 -41 -3 34 -22 -27 -112 -21 -104 12
000030 f5 e9 e8 fb 01 c1 ed 08 fe fe ff 0c 26 27 06 10
       -11 -23 -24 -5 1 -63 -19 8 -2 -2 -1 12 38 39 6 16
000040 04 21 01 f6 0c e6 bc e7 09 e9 d1 05 e7 06 3a fd
       4 33 1 -10 12 -26 -68 -25 9 -23 -47 5 -25 6 58 -3
000050 00 f4 ff cc ef fc 08 f1 fe 16 ea ef e8 03 07 00
       0 -12 -1 -52 -17 -4 8 -15 -2 22 -22 -17 -24 3 7 0
000060 e6 27 f3 21 f9 f0 de f1 eb f5 f4 df 24 1d 04 03
       -26 39 -13 33 -7 -16 -34 -15 -21 -11 -12 -33 36 29 4 3
000070 f0 16 fc ee 00 e0 d5 fe 35 12 f2 ff e2 0e de e5
       -16 22 -4 -18 0 -32 -43 -2 53 18 -14 -1 -30 14 -34 -27
000080 06 ff f8 02 f9 f6 f5 e4 00 ff ed 01 ec 10 1b ff
       6 -1 -8 2 -7 -10 -11 -28 0 -1 -19 1 -20 16 27 -1
000090 f5 0a 08 19 e4 10 06 ef e8 ff ee e0 f7 fc fd f4
       -11 10 8 25 -28 16 6 -17 -24 -1 -18 -32 -9 -4 -3 -12
0000a0 f1 fe fa e8 d1 fc ec 02 00 1e f8 18 06 0a 95 cd
       -15 -2 -6 -24 -47 -4 -20 2 0 30 -8 24 6 10 -107 -51
0000b0 db f5 02 11 fe f5 f8 f9 ec ea 08 ff f1 11 f3 f7
       -37 -11 2 17 -2 -11 -8 -7 -20 -22 8 -1 -15 17 -13 -9
0000c0 ec cd f5 df ed e4 fa ed 09 0e e8 de f4 f6 e7 f7
       -20 -51 -11 -33 -19 -28 -6 -19 9 14 -24 -34 -12 -10 -25 -9
0000d0 e3 13 06 3b f5 02 1f 18 00 02 0e cd 08 1a c5 e4
       -29 19 6 59 -11 2 31 24 0 2 14 -51 8 26 -59 -28
0000e0 f1 f8 23 e3 01 f8 b5 e4 0f f1 da f4 e0 dc d6 15
       -15 -8 35 -29 1 -8 -75 -28 15 -15 -38 -12 -32 -36 -42 21
0000f0 01 f4 0a e8 12 f6 fd 0b 13 00 f2 ff 0b 06 05 f8
       1 -12 10 -24 18 -10 -3 11 19 0 -14 -1 11 6 5 -8

sequential_1/conv2d_6/Conv2D i1 [48, 4, 4, 48]
000000 0a 15 20 da e6 fc 0e f8 ee eb 2b fc f9 1b 0e 17
       10 21 32 -38 -26 -4 14 -8 -18 -21 43 -4 -7 27 14 23
000010 f9 f7 23 1e 81 15 e4 f4 f4 f6 16 cc ed 16 04 00
       -7 -9 35 30 -127 21 -28 -12 -12 -10 22 -52 -19 22 4 0
000020 fd fe e2 dc 0d f8 15 1b 11 fd f4 e7 fc d4 f2 c5
       -3 -2 -30 -36 13 -8 21 27 17 -3 -12 -25 -4 -44 -14 -59
000030 05 0b f6 ef fa eb 10 00 00 fd 30 01 fe 0c ed ff
       5 11 -10 -17 -6 -21 16 0 0 -3 48 1 -2 12 -19 -1
000040 02 f3 ff f7 c6 08 ee f9 fd 15 e8 e8 d9 0c f9 ff
       2 -13 -1 -9 -58 8 -18 -7 -3 21 -24 -24 -39 12 -7 -1
000050 08 f0 06 de f6 f0 0c 08 fe f1 03 f2 02 e4 00 dd
       8 -16 6 -34 -10 -16 12 8 -2 -15 3 -14 2 -28 0 -35
000060 ee f8 fa cf f3 0c 0e f2 f3 d1 15 05 17 f9 05 03
       -18 -8 -6 -49 -13 12 14 -14 -13 -47 21 5 23 -7 5 3
000070 dc f0 dd 15 11 1f e1 e3 f9 16 f0 06 e6 10 01 0e
       -36 -16 -35 21 17 31 -31 -29 -7 22 -16 6 -26 16 1 14
000080 02 de dd e6 f8 df 05 06 e6 f5 ff f2 f2 f9 fc f7
       2 -34 -35 -26 -8 -33 5 6 -26 -11 -1 -14 -14 -7 -4 -9
000090 df 09 14 d1 06 1b fe 13 d8 f0 04 ee 0b f5 04 05
       -33 9 20 -47 6 27 -2 19 -40 -16 4 -18 11 -11 4 5
0000a0 f2 f6 12 18 f7 0d f5 f9 e6 0d e8 d9 db 07 e6 2b
       -14 -10 18 24 -9 13 -11 -7 -26 13 -24 -39 -37 7 -26 43
0000b0 04 01 dd e8 10 f6 ef 08 06 eb f3 f9 e4 e2 07 fc
       4 1 -35 -24 16 -10 -17 8 6 -21 -13 -7 -28 -30 7 -4
0000c0 0e 13 19 05 f3 e0 03 f8 f2 e5 08 12 ec 11 0c 0f
       14 19 25 5 -13 -32 3 -8 -14 -27 8 18 -20 17 12 15
0000d0 ef 09 3e 20 d7 df ee fd f9 fb 21 df ed 07 0f f7
       -17 9 62 32 -41 -33 -18 -3 -7 -5 33 -33 -19 7 15 -9
0000e0 05 0c 09 03 f3 04 07 1b 02 01 dd dd ff e8 0d e4
       5 12 9 3 -13 4 7 27 2 1 -35 -35 -1 -24 13 -28
0000f0 0b 00 13 16 0c d6 0b 0d 0c 01 36 22 f4 15 ef 01
       11 0 19 22 12 -42 11 13 12 1 54 34 -12 21 -17 1

sequential_1/conv2d_5/Conv2D i1 [48, 4, 4, 48]
000000 0a f1 06 14 0d f0 d4 0c 00 1c 00 fa e6 bd fb 27
       10 -15 6 20 13 -16 -44 12 0 28 0 -6 -26 -67 -5 39
000010 e7 e3 f3 4b 36 ea f6 1d d0 f4 c0 20 04 f4 fb f2
       -25 -29 -13 75 54 -22 -10 29 -48 -12 -64 32 4 -12 -5 -14
000020 ea f9 08 1e c8 f7 de 22 d6 f1 1c 1e 0b c8 1d d9
       -22 -7 8 30 -56 -9 -34 34 -42 -15 28 30 11 -56 29 -39
000030 cc eb f8 12 2c 2c ec d4 29 0c dd fb c9 35 f5 d2
       -52 -21 -8 18 44 44 -20 -44 41 12 -35 -5 -55 53 -11 -46
000040 e3 0f 05 f5 f2 ce 12 eb bd 04 cc f9 09 04 fc 2b
       -29 15 5 -11 -14 -50 18 -21 -67 4 -52 -7 9 4 -4 43
000050 fa ff 04 01 17 f6 df fe 04 fe dc 24 0f 10 fa de
       -6 -1 4 1 23 -10 -33 -2 4 -2 -36 36 15 16 -6 -34
000060 d1 ff d6 f4 26 37 f1 d5 0c e7 e8 df c8 16 26 e2
       -47 -1 -42 -12 38 55 -15 -43 12 -25 -24 -33 -56 22 38 -30
000070 ff fe 07 f5 fa e4 08 ff cf f7 de f8 f4 fe dd 42
       -1 -2 7 -11 -6 -28 8 -1 -49 -9 -34 -8 -12 -2 -35 66
000080 1f fa 09 f9 0b fc fb 15 29 ff b9 0d f8 17 09 de
       31 -6 9 -7 11 -4 -5 21 41 -1 -71 13 -8 23 9 -34
000090 f7 e8 c8 e0 17 26 e6 fd 19 fc 00 f5 da 08 f3 ea
       -9 -24 -56 -32 23 38 -26 -3 25 -4 0 -11 -38 8 -13 -22
0000a0 07 03 f7 f2 10 ea e4 f4 c8 f3 db ea ea 08 b6 08
       7 3 -9 -14 16 -22 -28 -12 -56 -13 -37 -22 -22 8 -74 8
0000b0 1c eb 01 e6 f5 03 e0 1f 00 15 c7 e6 17 f9 01 ea
       28 -21 1 -26 -11 3 -32 31 0 21 -57 -26 23 -7 1 -22
0000c0 25 2c ff 0d e0 fe f0 10 fa 13 f5 01 f4 93 f4 09
       37 44 -1 13 -32 -2 -16 16 -6 19 -11 1 -12 -109 -12 9
0000d0 15 05 ea 2d 16 f6 ea 30 03 02 23 1d fd fd 09 15
       21 5 -22 45 22 -10 -22 48 3 2 35 29 -3 -3 9 21
0000e0 01 05 e9 0f cc ee e4 26 e3 e2 35 2e f5 b8 e3 f5
       1 5 -23 15 -52 -18 -28 38 -29 -30 53 46 -11 -72 -29 -11
0000f0 f2 e1 ec 05 01 04 17 ec 28 f8 e6 00 f6 01 d7 f4
       -14 -31 -20 5 1 4 23 -20 40 -8 -26 0 -10 1 -41 -12

sequential_1/conv2d_4/Conv2D i1 [48, 4, 4, 48]
000000 1d 13 c3 dc 07 19 ff e8 11 fa 03 e8 14 2d 03 ea
       29 19 -61 -36 7 25 -1 -24 17 -6 3 -24 20 45 3 -22
000010 01 d3 e9 fc f0 3b e3 dd 0c ee 11 c9 fd c7 f0 19
       1 -45 -23 -4 -16 59 -29 -35 12 -18 17 -55 -3 -57 -16 25
000020 30 21 c5 f3 1d e0 d8 f2 df cb f6 09 fe ef e9 f3
       48 33 -59 -13 29 -32 -40 -14 -33 -53 -10 9 -2 -17 -23 -13
000030 01 d7 10 0c f8 09 e1 d2 14 00 f4 e4 06 f5 db 1c
       1 -41 16 12 -8 9 -31 -46 20 0 -12 -28 6 -11 -37 28
000040 fc 21 ec 0b f5 ce ef f1 cc e7 14 e5 06 b3 18 0d
       -4 33 -20 11 -11 -50 -17 -15 -52 -25 20 -27 6 -77 24 13
000050 23 12 d1 13 f7 e8 df f1 c9 1a f3 06 46 d8 cd f1
       35 18 -47 19 -9 -24 -33 -15 -55 26 -13 6 70 -40 -51 -15
000060 0b 90 03 00 d5 1a 17 14 ee 08 eb 02 e1 ea f2 0b
       11 -112 3 0 -43 26 23 20 -18 8 -21 2 -31 -22 -14 11
000070 e9 2f 00 fb 1e c3 f1 f0 a3 e2 f7 bf 1b f7 d9 cd
       -23 47 0 -5 30 -61 -15 -16 -93 -30 -9 -65 27 -9 -39 -51
000080 fd 04 ef 14 e6 f6 e1 ce f0 09 f7 01 fc 14 0e f9
       -3 4 -17 20 -26 -10 -31 -50 -16 9 -9 1 -4 20 14 -7
000090 02 01 0a ed ed 13 1e 33 f9 fd 13 0e d4 0b e7 e5
       2 1 10 -19 -19 19 30 51 -7 -3 19 14 -44 11 -25 -27
0000a0 e2 f0 00 f0 1e 15 d0 12 e8 d8 0a c4 03 17 e9 dc
       -30 -16 0 -16 30 21 -48 18 -24 -40 10 -60 3 23 -23 -36
0000b0 f8 08 f8 de 15 28 dd 12 ed f3 02 ff 20 ef fc 00
       -8 8 -8 -34 21 40 -35 18 -19 -13 2 -1 32 -17 -4 0
0000c0 f6 2b d5 0b 17 22 fd 05 09 ed e8 f9 d1 0d d8 fc
       -10 43 -43 11 23 34 -3 5 9 -19 -24 -7 -47 13 -40 -4
0000d0 f6 fa fa f5 f4 0e ed e1 3d 08 1f fa fb e4 de e6
       -10 -6 -6 -11 -12 14 -19 -31 61 8 31 -6 -5 -28 -34 -26
0000e0 bc 15 ef d7 f2 fb fc 10 13 c7 17 1c 14 15 f9 f5
       -68 21 -17 -41 -14 -5 -4 16 19 -57 23 28 20 21 -7 -11
0000f0 f3 22 13 ed 1a d7 f0 0a 16 fd e5 f2 cf db e9 f1
       -13 34 19 -19 26 -41 -16 10 22 -3 -27 -14 -49 -37 -23 -15

sequential_1/conv2d_3/Conv2D i1 [48, 4, 4, 16]
000000 a9 03 ce 0f ea 03 21 50 ea 1a 39 ed f3 e4 09 c9
       -87 3 -50 15 -22 3 33 80 -22 26 57 -19 -13 -28 9 -55
000010 9f f9 f7 47 f7 33 0f d3 e8 30 fe bc 08 14 d3 ba
       -97 -7 -9 71 -9 51 15 -45 -24 48 -2 -68 8 20 -45 -70
000020 dc 1b cd fd cc fe ea 41 b0 30 f8 07 de 6d e0 e9
       -36 27 -51 -3 -52 -2 -22 65 -80 48 -8 7 -34 109 -32 -23
000030 ca 13 da 18 8d ff f5 46 bc 2f db cb 1f 02 1b f3
       -54 19 -38 24 -115 -1 -11 70 -68 47 -37 -53 31 2 27 -13
000040 fe cf 27 16 0e c2 e9 02 43 0c 07 08 1b 15 3d 1e
       -2 -49 39 22 14 -62 -23 2 67 12 7 8 27 21 61 30
000050 f5 df 13 21 0f 2b e5 fc 36 0f 00 09 f7 f4 0c fe
       -11 -33 19 33 15 43 -27 -4 54 15 0 9 -9 -12 12 -2
000060 f9 02 00 39 1c e8 e9 0e 2a 33 f9 0e f5 e9 06 55
       -7 2 0 57 28 -24 -23 14 42 51 -7 14 -11 -23 6 85
000070 f9 22 11 12 27 09 f6 11 f4 40 e2 d7 11 36 fa 14
       -7 34 17 18 39 9 -10 17 -12 64 -30 -41 17 54 -6 20
000080 ea fc 18 e7 fa b5 35 01 e0 e0 04 25 47 fd 17 bb
       -22 -4 24 -25 -6 -75 53 1 -32 -32 4 37 71 -3 23 -69
000090 2a c8 b8 bf 19 b8 02 f2 2d dd f7 20 0b be eb e9
       42 -56 -72 -65 25 -72 2 -14 45 -35 -9 32 11 -66 -21 -23
0000a0 3c ed e0 c8 47 9b b4 12 23 e8 9a f8 e4 e0 49 3d
       60 -19 -32 -56 71 -101 -76 18 35 -24 -102 -8 -28 -32 73 61
0000b0 62 bd ee 01 f9 e7 0e b3 19 f3 c7 1e e6 e0 24 04
       98 -67 -18 1 -7 -25 14 -77 25 -13 -57 30 -26 -32 36 4
0000c0 d6 01 d1 03 33 e3 09 cd f0 f6 05 e6 02 d9 2d f6
       -42 1 -47 3 51 -29 9 -51 -16 -10 5 -26 2 -39 45 -10
0000d0 e1 f9 f8 ff 41 ca f3 98 d7 d3 07 01 9d 88 f0 e0
       -31 -7 -8 -1 65 -54 -13 -104 -41 -45 7 1 -99 -120 -16 -32
0000e0 2b 01 b1 ae 09 ae e6 b5 f4 c0 ee 24 cd af 15 e1
       43 1 -79 -82 9 -82 -26 -75 -12 -64 -18 36 -51 -81 21 -31
0000f0 27 e1 a6 c4 1f bf 2d e6 ea f5 01 36 d7 81 4e dc
       39 -31 -90 -60 31 -65 45 -26 -22 -11 1 54 -41 -127 78 -36

sequential_1/conv2d_2/Conv2D i1 [16, 4, 4, 16]
000000 fd 00 f8 22 d7 02 0b f0 f3 f1 06 e3 0d fe f8 de
       -3 0 -8 34 -41 2 11 -16 -13 -15 6 -29 13 -2 -8 -34
000010 9f c3 cf f3 e3 32 28 e3 10 f4 21 13 f5 02 03 cf
       -97 -61 -49 -13 -29 50 40 -29 16 -12 33 19 -11 2 3 -49
000020 b9 ac fc de 05 27 0b c8 2b 2d 1e 04 06 20 81 c8
       -71 -84 -4 -34 5 39 11 -56 43 45 30 4 6 32 -127 -56
000030 18 12 29 dc 0e dd cb db 0c 4f 83 3a da 17 d5 1c
       24 18 41 -36 14 -35 -53 -37 12 79 -125 58 -38 23 -43 28
000040 09 2c 34 db 55 c6 17 18 dc 11 de c5 24 f6 f6 17
       9 44 52 -37 85 -58 23 24 -36 17 -34 -59 36 -10 -10 23
000050 18 3e 5f 1e 0b f1 0a ba 8d bc 17 a7 31 d0 51 0f
       24 62 95 30 11 -15 10 -70 -115 -68 23 -89 49 -48 81 15
000060 c2 f3 df 39 ce 26 12 a9 db 9d 76 d5 08 fc 21 e4
       -62 -13 -33 57 -50 38 18 -87 -37 -99 118 -43 8 -4 33 -28
000070 18 92 0c 02 ce 0e 1c d7 2b 08 58 02 08 40 b5 c7
       24 -110 12 2 -50 14 28 -41 43 8 88 2 8 64 -75 -57
000080 1b a3 bf 02 2f e4 fc 2d 3a 46 02 fa e9 0a 90 f6
       27 -93 -65 2 47 -28 -4 45 58 70 2 -6 -23 10 -112 -10
000090 53 e0 29 cf 7d b7 21 00 15 13 95 c9 0d ec da 21
       83 -32 41 -49 125 -73 33 0 21 19 -107 -55 13 -20 -38 33
0000a0 2f 31 1d e0 6f cf 06 d7 d8 ca 07 b1 26 8f 15 48
       47 49 29 -32 111 -49 6 -41 -40 -54 7 -79 38 -113 21 72
0000b0 1c 0a e1 11 07 f7 07 e6 05 c6 62 bc 22 c7 fb e6
       28 10 -31 17 7 -9 7 -26 5 -58 98 -68 34 -57 -5 -26
0000c0 ed 0c bf 32 cd 59 da 29 fc 08 e2 17 e6 15 e8 0b
       -19 12 -65 50 -51 89 -38 41 -4 8 -30 23 -26 21 -24 11
0000d0 ee d3 fe 15 f6 0a 07 4f 32 1e 08 1a ed 3e a3 fe
       -18 -45 -2 21 -10 10 7 79 50 30 8 26 -19 62 -93 -2
0000e0 37 fc 6f c9 56 ed 00 05 21 06 9d e3 fd 0e cb 26
       55 -4 111 -55 86 -19 0 5 33 6 -99 -29 -3 14 -53 38
0000f0 28 08 23 f0 46 04 0d 17 fb 0e ee d1 f5 fb 1b 37
       40 8 35 -16 70 4 13 23 -5 14 -18 -47 -11 -5 27 55

sequential_1/conv2d_1/Conv2D i1 [16, 4, 4, 16]
000000 eb 15 f8 db f2 dd b7 0f 06 06 fe a8 f7 16 d7 d6
       -21 21 -8 -37 -14 -35 -73 15 6 6 -2 -88 -9 22 -41 -42
000010 cb cf 09 fb 15 d1 d1 0f f6 03 ea de e4 f8 d9 d7
       -53 -49 9 -5 21 -47 -47 15 -10 3 -22 -34 -28 -8 -39 -41
000020 da eb 05 33 05 d9 f1 fb 17 f9 e6 d4 da 17 d9 f7
       -38 -21 5 51 5 -39 -15 -5 23 -7 -26 -44 -38 23 -39 -9
000030 ee f3 f3 18 0a f9 06 e3 0c eb f9 d4 e6 ee d7 f7
       -18 -13 -13 24 10 -7 6 -29 12 -21 -7 -44 -26 -18 -41 -9
000040 d0 0d 1e db 13 01 eb 10 17 0a 0a a7 f4 2e ba e2
       -48 13 30 -37 19 1 -21 16 23 10 10 -89 -12 46 -70 -30
000050 fe d4 15 59 da f3 2b f0 13 13 d9 11 ce f8 c2 f7
       -2 -44 21 89 -38 -13 43 -16 19 19 -39 17 -50 -8 -62 -9
000060 11 29 01 3a ef ea f6 ef fc e8 fc ec d2 d2 c7 10
       17 41 1 58 -17 -22 -10 -17 -4 -24 -4 -20 -46 -46 -57 16
000070 c8 01 00 ff f6 ea fd f3 df f8 13 19 ef d4 fc 1b
       -56 1 0 -1 -10 -22 -3 -13 -33 -8 19 25 -17 -44 -4 27
000080 23 03 37 db 3f fc f5 2b 12 1d 05 c0 09 15 ce c0
       35 3 55 -37 63 -4 -11 43 18 29 5 -64 9 21 -50 -64
000090 70 e7 1f 32 cf f8 2a f6 35 d7 b1 3d be fe f0 d3
       112 -25 31 50 -49 -8 42 -10 53 -41 -79 61 -66 -2 -16 -45
0000a0 79 40 c7 0e bf f8 e5 e9 ea c8 fd dd f1 cf d1 de
       121 64 -57 14 -65 -8 -27 -23 -22 -56 -3 -35 -15 -49 -47 -34
0000b0 bf 28 ea f4 f0 fd f1 e5 c8 13 1c 11 ef f4 fa 0d
       -65 40 -22 -12 -16 -3 -15 -27 -56 19 28 17 -17 -12 -6 13
0000c0 95 b5 2e d5 48 f0 ee 14 ec 3e 1a cd 0c 22 ae da
       -107 -75 46 -43 72 -16 -18 20 -20 62 26 -51 12 34 -82 -38
0000d0 10 67 0f dc 10 14 0f 13 0d ef e7 fe 81 1a c6 0f
       16 103 15 -36 16 20 15 19 13 -17 -25 -2 -127 26 -58 15
0000e0 3e 40 e8 d1 e5 cf f3 f7 16 db f0 98 f2 04 00 2d
       62 64 -24 -47 -27 -49 -13 -9 22 -37 -16 -104 -14 4 0 45
0000f0 e5 02 fd 15 f8 e6 e2 13 0e 11 06 fb d6 fc 00 08
       -27 2 -3 21 -8 -26 -30 19 14 17 6 -5 -42 -4 0 8

sequential_1/conv2d/Conv2D i1 [16, 4, 4, 1]
000000 e8 9f fa 0d ee f7 fd ff fa 0b f0 09 e0 e9 0a 81
       -24 -97 -6 13 -18 -9 -3 -1 -6 11 -16 9 -32 -23 10 -127
000010 0c b0 81 d8 fe d0 8f b9 ec 01 20 f2 04 08 2d 15
       12 -80 -127 -40 -2 -48 -113 -71 -20 1 32 -14 4 8 45 21
000020 eb 2b 0e d3 fe 7f f3 dd 55 71 0a de 18 39 ff e6
       -21 43 14 -45 -2 127 -13 -35 85 113 10 -34 24 57 -1 -26
000030 b8 0c 12 1e ff 31 65 ce e4 24 d8 08 7f 08 90 ab
       -72 12 18 30 -1 49 101 -50 -28 36 -40 8 127 8 -112 -85
000040 d6 de 17 68 db f5 5d 7f f8 e0 ec 61 d7 c3 c3 15
       -42 -34 23 104 -37 -11 93 127 -8 -32 -20 97 -41 -61 -61 21
000050 34 71 73 a0 bb b2 2a a5 5e 81 7f c5 94 c5 5c 39
       52 113 115 -96 -69 -78 42 -91 94 -127 127 -59 -108 -59 92 57
000060 c0 3b 41 21 de f3 81 33 0f 57 d5 11 fb 38 10 8c
       -64 59 65 33 -34 -13 -127 51 15 87 -43 17 -5 56 16 -116
000070 10 e2 0c fc 0a e6 f0 0b 2d 40 7f 40 ef 20 7a 54
       16 -30 12 -4 10 -26 -16 11 45 64 127 64 -17 32 122 84
000080 20 0d f9 f9 37 ef ed db 7f 0d e3 93 47 3f dd de
       32 13 -7 -7 55 -17 -19 -37 127 13 -29 -109 71 63 -35 -34
000090 be 3a 4e 48 e1 5d 7f 16 d8 24 3e 10 ff 12 e8 ba
       -66 58 78 72 -31 93 127 22 -40 36 62 16 -1 18 -24 -70
0000a0 bc 07 57 2d db f5 7f 5c 9a 09 20 38 d6 ae cf e6
       -68 7 87 45 -37 -11 127 92 -102 9 32 56 -42 -82 -49 -26
0000b0 0f fc f1 eb f8 02 01 19 fc 1b 81 08 f9 f7 f3 1b
       15 -4 -15 -21 -8 2 1 25 -4 27 -127 8 -7 -9 -13 27
0000c0 d2 d4 c2 7f ae 40 c8 60 0e 93 3e e2 10 b1 3c 42
       -46 -44 -62 127 -82 64 -56 96 14 -109 62 -30 16 -79 60 66
0000d0 a7 ca b7 d1 0a 29 0c 0b 45 7e 70 62 16 60 7f 2c
       -89 -54 -73 -47 10 41 12 11 69 126 112 98 22 96 127 44
0000e0 bf ad ea 74 4d f8 7f 84 2d 22 84 f1 a6 1c 27 41
       -65 -83 -22 116 77 -8 127 -124 45 34 -124 -15 -90 28 39 65
0000f0 0f bb a1 17 20 55 56 34 43 bd 7f de 8a 4b 8a bd
       15 -69 -95 23 32 85 86 52 67 -67 127 -34 -118 75 -118 -67
