common/src/models/hps_model/shared_20220623_1032_tiled.tflite (tflite, 312520 bytes, 11 tensors)

model_1/dense_2/MatMul i1 [2, 32] scale=0.0029431814 zero_point=0
000000 f9 03 04 07 fd ea fe 01 fc fb 06 07 81 00 fc 06
       -0.020602271 0.008829544 0.011772726 0.020602271 -0.008829544 -0.06474999 -0.005886363 0.0029431814 -0.011772726 -0.014715907 0.017659089 0.020602271 -0.37378404 0.0 -0.011772726 0.017659089
000010 f9 02 05 fc 03 05 fd fa 04 fc 04 07 fc f9 fc 04
       -0.020602271 0.005886363 0.014715907 -0.011772726 0.008829544 0.014715907 -0.008829544 -0.017659089 0.011772726 -0.011772726 0.011772726 0.020602271 -0.011772726 -0.020602271 -0.011772726 0.011772726
000020 fb 04 05 ff fd f7 fc 04 fb 03 fe fc 28 fc fc 01
       -0.014715907 0.011772726 0.014715907 -0.0029431814 -0.008829544 -0.026488632 -0.011772726 0.011772726 -0.014715907 0.008829544 -0.005886363 -0.011772726 0.11772726 -0.011772726 -0.011772726 0.0029431814
000030 fe fb ed fd 02 06 fc fb fc f9 04 fe fc fb fd 05
       -0.005886363 -0.014715907 -0.05592045 -0.008829544 0.005886363 0.017659089 -0.011772726 -0.014715907 -0.011772726 -0.020602271 0.011772726 -0.005886363 -0.011772726 -0.014715907 -0.008829544 0.014715907

model_1/dense_1/MatMul i1 [32, 32] scale=0.009253167 zero_point=0
000000 07 f3 0f fd 04 04 fa fc 0d fc ff 11 f7 1e 18 fe
       0.06477217 -0.120291166 0.13879749 -0.0277595 0.037012666 0.037012666 -0.055519 -0.037012666 0.120291166 -0.037012666 -0.009253167 0.15730384 -0.0832785 0.27759498 0.222076 -0.018506333
000010 fa fd ff fc fc 0f ec f7 fd 09 fc ff ea fd 12 e6
       -0.055519 -0.0277595 -0.009253167 -0.037012666 -0.037012666 0.13879749 -0.18506333 -0.0832785 -0.0277595 0.0832785 -0.037012666 -0.009253167 -0.20356967 -0.0277595 0.166557 -0.24058233
000020 07 df fe fe fa df 08 e4 ee fa ff f0 1a e7 f9 00
       0.06477217 -0.3053545 -0.018506333 -0.018506333 -0.055519 -0.3053545 0.07402533 -0.25908867 -0.166557 -0.055519 -0.009253167 -0.14805067 0.24058233 -0.23132917 -0.06477217 0.0
000030 1b 04 0c f9 fc ee f4 f4 03 0d 0d 18 06 fd ef ef
       0.24983549 0.037012666 0.111038 -0.06477217 -0.037012666 -0.166557 -0.111038 -0.111038 0.0277595 0.120291166 0.120291166 0.222076 0.055519 -0.0277595 -0.15730384 -0.15730384
000040 18 f9 fd ff 04 f8 1e f1 1f f9 fe 09 e8 20 ff 02
       0.222076 -0.06477217 -0.0277595 -0.009253167 0.037012666 -0.07402533 0.27759498 -0.13879749 0.28684816 -0.06477217 -0.018506333 0.0832785 -0.222076 0.29610133 -0.009253167 0.018506333
000050 07 19 0a 00 ff 10 f7 06 fc 02 fa 0b f2 f1 09 d9
       0.06477217 0.23132917 0.092531666 0.0 -0.009253167 0.14805067 -0.0832785 0.055519 -0.037012666 0.018506333 -0.055519 0.10178483 -0.12954433 -0.13879749 0.0832785 -0.3608735
000060 ea 0f 0f 03 ef e3 05 f6 17 d7 00 f9 fe 0a 13 1a
       -0.20356967 0.13879749 0.13879749 0.0277595 -0.15730384 -0.26834184 0.046265833 -0.092531666 0.21282282 -0.37937984 0.0 -0.06477217 -0.018506333 0.092531666 0.17581016 0.24058233
000070 06 fa fc 0a 15 fd fc e2 f5 08 11 03 1d e3 03 25
       0.055519 -0.055519 -0.037012666 0.092531666 0.1943165 -0.0277595 -0.037012666 -0.27759498 -0.10178483 0.07402533 0.15730384 0.0277595 0.26834184 -0.26834184 0.0277595 0.34236717
000080 08 1c 20 fa 12 fd f3 fb f1 de f8 e6 e7 18 e4 02
       0.07402533 0.25908867 0.29610133 -0.055519 0.166557 -0.0277595 -0.120291166 -0.046265833 -0.13879749 -0.31460768 -0.07402533 -0.24058233 -0.23132917 0.222076 -0.25908867 0.018506333
000090 15 15 f4 fb fc e4 f3 d9 ff 08 f7 de ed 05 ea 01
       0.1943165 0.1943165 -0.111038 -0.046265833 -0.037012666 -0.25908867 -0.120291166 -0.3608735 -0.009253167 0.07402533 -0.0832785 -0.31460768 -0.17581016 0.046265833 -0.20356967 0.009253167
0000a0 07 e1 fc fe fc f2 1c 04 ff 01 00 f0 00 0b f1 01
       0.06477217 -0.28684816 -0.037012666 -0.018506333 -0.037012666 -0.12954433 0.25908867 0.037012666 -0.009253167 0.009253167 0.0 -0.14805067 0.0 0.10178483 -0.13879749 0.009253167
0000b0 0d 10 01 fe fe 0a 0e fb 01 ef 00 00 eb ab fd 19
       0.120291166 0.14805067 0.009253167 -0.018506333 -0.018506333 0.092531666 0.12954433 -0.046265833 0.009253167 -0.15730384 0.0 0.0 -0.1943165 -0.78651917 -0.0277595 0.23132917
0000c0 17 13 e0 ed f9 18 19 00 15 f3 f5 fc 08 e3 ec 01
       0.21282282 0.17581016 -0.29610133 -0.17581016 -0.06477217 0.222076 0.23132917 0.0 0.1943165 -0.120291166 -0.10178483 -0.037012666 0.07402533 -0.26834184 -0.18506333 0.009253167
0000d0 1d 1e ff f9 fa f9 e3 05 fc 18 0b 20 02 0f 23 fe
       0.26834184 0.27759498 -0.009253167 -0.06477217 -0.055519 -0.06477217 -0.26834184 0.046265833 -0.037012666 0.222076 0.10178483 0.29610133 0.018506333 0.13879749 0.32386082 -0.018506333
0000e0 f2 0a fd fe fd f8 11 1d 22 f0 03 10 1c f0 e5 fd
       -0.12954433 0.092531666 -0.0277595 -0.018506333 -0.0277595 -0.07402533 0.15730384 0.26834184 0.31460768 -0.14805067 0.0277595 0.14805067 0.25908867 -0.14805067 -0.24983549 -0.0277595
0000f0 e9 19 08 f7 f9 0e 06 ee 01 10 12 f5 01 fc fd ea
       -0.21282282 0.23132917 0.07402533 -0.0832785 -0.06477217 0.12954433 0.055519 -0.166557 0.009253167 0.14805067 0.166557 -0.10178483 0.009253167 -0.037012666 -0.0277595 -0.20356967

model_1/dense/MatMul i1 [32, 3360] scale=0.032261178 zero_point=0
000000 00 00 ff 00 ff ff ff 00 00 00 ff ff ff 01 ff ff
       0.0 0.0 -0.032261178 0.0 -0.032261178 -0.032261178 -0.032261178 0.0 0.0 0.0 -0.032261178 -0.032261178 -0.032261178 0.032261178 -0.032261178 -0.032261178
000010 fe 00 01 00 00 01 00 ff 00 00 ff ff 00 01 00 01
       -0.064522356 0.0 0.032261178 0.0 0.0 0.032261178 0.0 -0.032261178 0.0 0.0 -0.032261178 -0.032261178 0.0 0.032261178 0.0 0.032261178
000020 00 01 01 fe 01 00 ff 01 00 ff 00 00 fe ff ff 00
       0.0 0.032261178 0.032261178 -0.064522356 0.032261178 0.0 -0.032261178 0.032261178 0.0 -0.032261178 0.0 0.0 -0.064522356 -0.032261178 -0.032261178 0.0
000030 fe 00 ff 00 ff ff 01 ff ff 00 01 ff ff 00 00 ff
       -0.064522356 0.0 -0.032261178 0.0 -0.032261178 -0.032261178 0.032261178 -0.032261178 -0.032261178 0.0 0.032261178 -0.032261178 -0.032261178 0.0 0.0 -0.032261178
000040 01 ff 01 01 ff ff fe 01 00 ff 01 00 00 01 01 ff
       0.032261178 -0.032261178 0.032261178 0.032261178 -0.032261178 -0.032261178 -0.064522356 0.032261178 0.0 -0.032261178 0.032261178 0.0 0.0 0.032261178 0.032261178 -0.032261178
000050 01 00 00 01 00 ff 01 00 ff ff 01 ff fe fe ff 01
       0.032261178 0.0 0.0 0.032261178 0.0 -0.032261178 0.032261178 0.0 -0.032261178 -0.032261178 0.032261178 -0.032261178 -0.064522356 -0.064522356 -0.032261178 0.032261178
000060 00 ff 01 00 fe ff ff 00 00 00 00 ff 00 ff 00 ff
       0.0 -0.032261178 0.032261178 0.0 -0.064522356 -0.032261178 -0.032261178 0.0 0.0 0.0 0.0 -0.032261178 0.0 -0.032261178 0.0 -0.032261178
000070 00 00 01 ff ff 00 00 01 00 ff 00 ff 00 01 ff ff
       0.0 0.0 0.032261178 -0.032261178 -0.032261178 0.0 0.0 0.032261178 0.0 -0.032261178 0.0 -0.032261178 0.0 0.032261178 -0.032261178 -0.032261178
000080 01 01 00 ff 00 01 fe ff 00 01 01 ff ff 00 ff ff
       0.032261178 0.032261178 0.0 -0.032261178 0.0 0.032261178 -0.064522356 -0.032261178 0.0 0.032261178 0.032261178 -0.032261178 -0.032261178 0.0 -0.032261178 -0.032261178
000090 fe ff ff fe fe 01 00 00 01 01 00 01 00 00 01 fe
       -0.064522356 -0.032261178 -0.032261178 -0.064522356 -0.064522356 0.032261178 0.0 0.0 0.032261178 0.032261178 0.0 0.032261178 0.0 0.0 0.032261178 -0.064522356
0000a0 00 ff 01 00 00 00 ff 00 00 ff 01 ff ff ff ff 01
       0.0 -0.032261178 0.032261178 0.0 0.0 0.0 -0.032261178 0.0 0.0 -0.032261178 0.032261178 -0.032261178 -0.032261178 -0.032261178 -0.032261178 0.032261178
0000b0 01 01 00 ff 01 01 ff ff ff ff 00 01 00 ff ff 00
       0.032261178 0.032261178 0.0 -0.032261178 0.032261178 0.032261178 -0.032261178 -0.032261178 -0.032261178 -0.032261178 0.0 0.032261178 0.0 -0.032261178 -0.032261178 0.0
0000c0 00 00 01 00 00 00 00 fe 01 00 01 00 01 00 00 ff
       0.0 0.0 0.032261178 0.0 0.0 0.0 0.0 -0.064522356 0.032261178 0.0 0.032261178 0.0 0.032261178 0.0 0.0 -0.032261178
0000d0 fe 01 01 01 ff 01 00 00 ff ff 00 01 00 00 00 01
       -0.064522356 0.032261178 0.032261178 0.032261178 -0.032261178 0.032261178 0.0 0.0 -0.032261178 -0.032261178 0.0 0.032261178 0.0 0.0 0.0 0.032261178
0000e0 01 ff ff 00 fe 01 00 ff 01 ff 01 00 00 ff ff ff
       0.032261178 -0.032261178 -0.032261178 0.0 -0.064522356 0.032261178 0.0 -0.032261178 0.032261178 -0.032261178 0.032261178 0.0 0.0 -0.032261178 -0.032261178 -0.032261178
0000f0 00 00 01 ff fe ff ff 00 fe ff ff 00 ff 00 01 ff
       0.0 0.0 0.032261178 -0.032261178 -0.064522356 -0.032261178 -0.032261178 0.0 -0.064522356 -0.032261178 -0.032261178 0.0 -0.032261178 0.0 0.032261178 -0.032261178

model_1/conv2d_7/Conv2D i1 [48, 4, 4, 48]
000000 b1 e8 05 ff e6 fd e3 fa c6 cb f7 ff fd ed 13 eb
       -79 -24 5 -1 -26 -3 -29 -6 -58 -53 -9 -1 -3 -19 19 -21
000010 06 1d ff fd f4 f7 ca dd e8 eb 18 81 e9 16 0c db
       6 29 -1 -3 -12 -9 -54 -35 -24 -21 24 -127 -23 22 12 -37
000020 cd cd e0 15 25 0d 29 01 af 0b 26 d9 e7 2a 09 e0
       -51 -51 -32 21 37 13 41 1 -81 11 38 -39 -25 42 9 -32
000030 c5 07 21 d8 fc f6 43 0c f8 10 12 05 08 0e 0b 10
       -59 7 33 -40 -4 -10 67 12 -8 16 18 5 8 14 11 16
000040 09 1f f6 f4 f9 eb d7 0f e2 01 fa dd 10 06 f7 34
       9 31 -10 -12 -7 -21 -41 15 -30 1 -6 -35 16 6 -9 52
000050 1f 19 f2 d0 11 f3 fe 05 07 24 0a ae e9 00 03 fa
       31 25 -14 -48 17 -13 -2 5 7 36 10 -82 -23 0 3 -6
000060 e7 03 1c ec e8 f5 07 09 0b e8 15 07 fa 01 f4 fb
       -25 3 28 -20 -24 -11 7 9 11 -24 21 7 -6 1 -12 -5
000070 c9 16 fd 00 f3 0e d0 e5 eb d6 f5 ea 0f 18 fb eb
       -55 22 -3 0 -13 14 -48 -27 -21 -42 -11 -22 15 24 -5 -21
000080 eb fd de fc fd fe 05 03 f6 10 04 ce eb 08 ec ea
       -21 -3 -34 -4 -3 -2 5 3 -10 16 4 -50 -21 8 -20 -22
000090 d6 f3 13 06 f6 01 f7 0e d1 0f 02 01 f1 f8 e9 0e
       -42 -13 19 6 -10 1 -9 14 -47 15 2 1 -15 -8 -23 14
0000a0 d7 28 08 06 12 22 e6 f5 fb e1 f5 15 21 f2 07 f0
       -41 40 8 6 18 34 -26 -11 -5 -31 -11 21 33 -14 7 -16
0000b0 ee cc ff ed e5 0e fb fb d6 ff ef f9 f3 0a 15 e6
       -18 -52 -1 -19 -27 14 -5 -5 -42 -1 -17 -7 -13 10 21 -26
0000c0 f5 f6 fa fe ee 04 fe f8 e4 16 10 e9 0f 06 ff 00
       -11 -10 -6 -2 -18 4 -2 -8 -28 22 16 -23 15 6 -1 0
0000d0 15 0e fb 06 dc d6 13 f4 17 0d f7 1c f9 0b f8 fd
       21 14 -5 6 -36 -42 19 -12 23 13 -9 28 -7 11 -8 -3
0000e0 fb ca fd 13 11 0e f3 fe f3 e4 e7 ee 05 1f 02 f0
       -5 -54 -3 19 17 14 -13 -2 -13 -28 -25 -18 5 31 2 -16
0000f0 2e 05 0e f6 02 f1 1a 03 1b 0b 10 0a 14 0a 16 27
       46 5 14 -10 2 -15 26 3 27 11 16 10 20 10 22 39

model_1/conv2d_6/Conv2D i1 [48, 4, 4, 48]
000000 ef cd 13 ff 0e db 17 e4 f7 f3 fe e1 10 eb 18 ea
       -17 -51 19 -1 14 -37 23 -28 -9 -13 -2 -31 16 -21 24 -22
000010 14 f5 f2 22 16 ea 0e f1 03 fd e9 01 06 0f 1d ff
       20 -11 -14 34 22 -22 14 -15 3 -3 -23 1 6 15 29 -1
000020 e6 f7 00 ff 05 0f f7 fb e0 d2 fb f9 07 ff 0a fe
       -26 -9 0 -1 5 15 -9 -5 -32 -46 -5 -7 7 -1 10 -2
000030 f1 f8 15 fa 21 ee 2a e0 e9 e6 fb d1 07 e0 ea 09
       -15 -8 21 -6 33 -18 42 -32 -23 -26 -5 -47 7 -32 -22 9
000040 07 eb 06 15 15 f2 0d ee 19 21 f3 fd e9 12 ea e8
       7 -21 6 21 21 -14 13 -18 25 33 -13 -3 -23 18 -22 -24
000050 e0 f8 f7 de f4 ff 16 f4 fd c6 fc e4 f6 16 f6 fb
       -32 -8 -9 -34 -12 -1 22 -12 -3 -58 -4 -28 -10 22 -10 -5
000060 f0 fb 14 10 06 fd 19 e4 11 fd f3 f3 f2 03 11 10
       -16 -5 20 16 6 -3 25 -28 17 -3 -13 -13 -14 3 17 16
000070 f3 eb 01 f9 0b f6 f4 06 0c 2d f5 e4 f7 f7 03 f7
       -13 -21 1 -7 11 -10 -12 6 12 45 -11 -28 -9 -9 3 -9
000080 fa 02 03 f1 15 e9 03 06 01 dc fe f3 01 2b f7 04
       -6 2 3 -15 21 -23 3 6 1 -36 -2 -13 1 43 -9 4
000090 fc 02 0a f4 15 f1 03 ca ec f0 f1 f8 df eb e7 ff
       -4 2 10 -12 21 -15 3 -54 -20 -16 -15 -8 -33 -21 -25 -1
0000a0 ff f1 f6 f7 25 e2 f2 ff 1b 01 f9 0f f2 fa ec 09
       -1 -15 -10 -9 37 -30 -14 -1 27 1 -7 15 -14 -6 -20 9
0000b0 f7 e2 19 ef fb f7 fd 06 f0 dd fa f3 07 e1 00 ff
       -9 -30 25 -17 -5 -9 -3 6 -16 -35 -6 -13 7 -31 0 -1
0000c0 f5 1b 04 01 18 01 1b 05 f4 e8 eb df 19 f3 f5 fd
       -11 27 4 1 24 1 27 5 -12 -24 -21 -33 25 -13 -11 -3
0000d0 fb ee f7 14 25 c8 0f f7 b1 09 da 1f 06 10 21 23
       -5 -18 -9 20 37 -56 15 -9 -79 9 -38 31 6 16 33 35
0000e0 fd fc e4 fd 23 41 f3 12 e8 e8 03 23 04 1b 0b fc
       -3 -4 -28 -3 35 65 -13 18 -24 -24 3 35 4 27 11 -4
0000f0 01 d9 2b fc 13 1e 26 07 00 e8 e9 e3 14 12 dd 07
       1 -39 43 -4 19 30 38 7 0 -24 -23 -29 20 18 -35 7

model_1/conv2d_5/Conv2D i1 [48, 4, 4, 48]
000000 ae 0e b8 8b 1f ab cc c3 ab 0e f7 df f9 f6 1c d9
       -82 14 -72 -117 31 -85 -52 -61 -85 14 -9 -33 -7 -10 28 -39
000010 ee b9 06 ad 18 cd 9d 12 4e 02 d0 e2 d9 d2 1a bd
       -18 -71 6 -83 24 -51 -99 18 78 2 -48 -30 -39 -46 26 -67
000020 ce df 98 dd f8 b0 f3 f7 05 14 f7 01 f1 c4 ad 83
       -50 -33 -104 -35 -8 -80 -13 -9 5 20 -9 1 -15 -60 -83 -125
000030 d3 b3 ea b0 b3 bf e8 0e e7 0d e5 be e8 20 fc d4
       -45 -77 -22 -80 -77 -65 -24 14 -25 13 -27 -66 -24 32 -4 -44
000040 07 ca b1 de cc d8 c2 18 b8 ea bf d4 cf cd fb ce
       7 -54 -79 -34 -52 -40 -62 24 -72 -22 -65 -44 -49 -51 -5 -50
000050 e7 d8 c5 c3 d2 f6 0f f3 18 f1 19 00 b3 0d f1 e0
       -25 -40 -59 -61 -46 -10 15 -13 24 -15 25 0 -77 13 -15 -32
000060 fb e3 1e d8 a2 d2 d0 e0 01 eb 09 96 05 18 f0 e3
       -5 -29 30 -40 -94 -46 -48 -32 1 -21 9 -106 5 24 -16 -29
000070 12 1b 08 cd b1 c6 d2 e3 f5 f7 1f c1 bb c0 14 fb
       18 27 8 -51 -79 -58 -46 -29 -11 -9 31 -63 -69 -64 20 -5
000080 ae ce d3 dc eb cb a9 e2 e9 0d 9a 05 9e e5 cc 04
       -82 -50 -45 -36 -21 -53 -87 -30 -23 13 -102 5 -98 -27 -52 4
000090 ef c6 d1 c9 c9 ee e0 f3 ee 1c 19 c7 be 2f e6 f5
       -17 -58 -47 -55 -55 -18 -32 -13 -18 28 25 -57 -66 47 -26 -11
0000a0 11 ff e0 e2 06 a0 a5 b7 ee e6 09 de 19 10 fb d2
       17 -1 -32 -30 6 -96 -91 -73 -18 -26 9 -34 25 16 -5 -46
0000b0 cd b7 fe c9 e4 d0 cc ee e8 fc b3 02 fc 05 df 0c
       -51 -73 -2 -55 -28 -48 -52 -18 -24 -4 -77 2 -4 5 -33 12
0000c0 da 01 25 da de e2 e0 bc f6 d0 e0 c7 f9 fb f5 ec
       -38 1 37 -38 -34 -30 -32 -68 -10 -48 -32 -57 -7 -5 -11 -20
0000d0 e0 fb fd b8 08 b3 97 0c 4b df 25 cd ee 14 09 fa
       -32 -5 -3 -72 8 -77 -105 12 75 -33 37 -51 -18 20 9 -6
0000e0 ba d5 ef da f7 e5 f1 e4 f6 e3 ad 04 d4 ca d4 e9
       -70 -43 -17 -38 -9 -27 -15 -28 -10 -29 -83 4 -44 -54 -44 -23
0000f0 f8 ca b8 f7 ff a3 a6 ef d9 fd e2 df c6 c4 20 c6
       -8 -54 -72 -9 -1 -93 -90 -17 -39 -3 -30 -33 -58 -60 32 -58

model_1/conv2d_4/Conv2D i1 [48, 4, 4, 48]
000000 ea 0e 13 fd 11 ff 1b f4 1e 0a f6 02 fe fb fe fd
       -22 14 19 -3 17 -1 27 -12 30 10 -10 2 -2 -5 -2 -3
000010 f7 05 22 0b fd 0c d3 dd fe f5 fa ee fa 17 0d 11
       -9 5 34 11 -3 12 -45 -35 -2 -11 -6 -18 -6 23 13 17
000020 ff 11 fa b8 fa 0f 02 e9 03 d1 e8 00 0d eb 10 0c
       -1 17 -6 -72 -6 15 2 -23 3 -47 -24 0 13 -21 16 12
000030 e8 f6 11 fc e5 11 e0 f4 05 ed 03 f6 00 05 06 12
       -24 -10 17 -4 -27 17 -32 -12 5 -19 3 -10 0 5 6 18
000040 ff 02 f7 f8 06 05 e7 fa 00 f6 fe f5 ff ff 02 16
       -1 2 -9 -8 6 5 -25 -6 0 -10 -2 -11 -1 -1 2 22
000050 fb 14 f8 dd f2 f5 ec 0a 0e ea f8 f2 03 09 fc 01
       -5 20 -8 -35 -14 -11 -20 10 14 -22 -8 -14 3 9 -4 1
000060 f3 f7 f3 06 01 0e e5 f6 f7 ec 17 f0 06 f6 12 13
       -13 -9 -13 6 1 14 -27 -10 -9 -20 23 -16 6 -10 18 19
000070 0e e5 e7 f7 06 0a 03 0d fa fc ef 09 00 e2 06 03
       14 -27 -25 -9 6 10 3 13 -6 -4 -17 9 0 -30 6 3
000080 f6 0f d7 07 fe eb fe 04 0a 02 01 f3 fb 03 e0 19
       -10 15 -41 7 -2 -21 -2 4 10 2 1 -13 -5 3 -32 25
000090 fe 09 01 14 03 fd 0d 02 0f 0c 04 fc fc 02 11 03
       -2 9 1 20 3 -3 13 2 15 12 4 -4 -4 2 17 3
0000a0 07 05 09 02 08 fc 08 17 03 10 f5 f9 00 dc 0b f4
       7 5 9 2 8 -4 8 23 3 16 -11 -7 0 -36 11 -12
0000b0 ed 07 04 18 0b 02 11 10 ef f9 07 05 00 f6 fc 08
       -19 7 4 24 11 2 17 16 -17 -7 7 5 0 -10 -4 8
0000c0 10 08 ff 01 fb fb 0f f6 04 f6 01 0a 07 08 08 ff
       16 8 -1 1 -5 -5 15 -10 4 -10 1 10 7 8 8 -1
0000d0 fe f2 1d 04 ff 01 d0 f3 fe d1 ec fe ee 04 05 11
       -2 -14 29 4 -1 1 -48 -13 -2 -47 -20 -2 -18 4 5 17
0000e0 07 07 01 c4 0b 05 20 f0 05 00 f7 f8 09 bf 02 11
       7 7 1 -60 11 5 32 -16 5 0 -9 -8 9 -65 2 17
0000f0 02 ea 15 03 d4 fe f0 f5 15 f9 f8 07 f6 fd ea fe
       2 -22 21 3 -44 -2 -16 -11 21 -7 -8 7 -10 -3 -22 -2

model_1/conv2d_3/Conv2D i1 [48, 4, 4, 16]
000000 c5 07 ce 0f 09 1a 1a eb 17 0d 0e ef fb 12 f0 ed
       -59 7 -50 15 9 26 26 -21 23 13 14 -17 -5 18 -16 -19
000010 0e fd 0b 05 da da 2f f8 f3 fc 05 d2 f9 f7 07 25
       14 -3 11 5 -38 -38 47 -8 -13 -4 5 -46 -7 -9 7 37
000020 1b 07 24 eb 0b f6 c6 eb 02 ca 09 f0 04 c1 d3 01
       27 7 36 -21 11 -10 -58 -21 2 -54 9 -16 4 -63 -45 1
000030 12 fb 06 01 01 05 01 f3 f9 fa fa 0d 02 f9 fe f3
       18 -5 6 1 1 5 1 -13 -7 -6 -6 13 2 -7 -2 -13
000040 a6 f9 d1 38 ff ed 41 be e3 13 04 cb 00 7f 43 ca
       -90 -7 -47 56 -1 -19 65 -66 -29 19 4 -53 0 127 67 -54
000050 0e fe 08 ee 1d e1 11 de ff 08 01 f0 02 e2 19 05
       14 -2 8 -18 29 -31 17 -34 -1 8 1 -16 2 -30 25 5
000060 06 0c 03 1a 12 1c e5 e4 2c 13 f7 10 05 fc fd ff
       6 12 3 26 18 28 -27 -28 44 19 -9 16 5 -4 -3 -1
000070 ee fd e1 15 f0 07 fa f3 02 06 ff 06 fc f4 08 fd
       -18 -3 -31 21 -16 7 -6 -13 2 6 -1 6 -4 -12 8 -3
000080 f7 fe fc 36 ea e6 1c d6 c3 1c 08 1c f8 07 17 ee
       -9 -2 -4 54 -22 -26 28 -42 -61 28 8 28 -8 7 23 -18
000090 10 02 ff dc ff 13 e8 dd 14 1f 05 11 f7 e3 05 e3
       16 2 -1 -36 -1 19 -24 -35 20 31 5 17 -9 -29 5 -29
0000a0 fb 07 0c 0a 19 01 12 f5 13 0c 00 ff f9 05 fc 1d
       -5 7 12 10 25 1 18 -11 19 12 0 -1 -7 5 -4 29
0000b0 ec fc fd 01 04 ff 0c 02 f7 0d fd ed 05 0d 09 fe
       -20 -4 -3 1 4 -1 12 2 -9 13 -3 -19 5 13 9 -2
0000c0 02 0b 10 1a df 09 02 f7 14 01 04 07 04 ea f0 fa
       2 11 16 26 -33 9 2 -9 20 1 4 7 4 -22 -16 -6
0000d0 10 f6 fd ec e8 28 d5 f4 2c 01 05 fc 07 e1 e1 07
       16 -10 -3 -20 -24 40 -43 -12 44 1 5 -4 7 -31 -31 7
0000e0 ee 01 06 00 12 08 f7 fa 06 fc 07 01 f7 ee e1 01
       -18 1 6 0 18 8 -9 -6 6 -4 7 1 -9 -18 -31 1
0000f0 f8 01 04 02 06 08 10 fe 01 01 02 fb 0a f9 e8 0f
       -8 1 4 2 6 8 16 -2 1 1 2 -5 10 -7 -24 15

model_1/conv2d_2/Conv2D i1 [16, 4, 4, 16]
000000 ff df dd eb ec ce ff 16 32 fb 20 44 ef 1c 1e d3
       -1 -33 -35 -21 -20 -50 -1 22 50 -5 32 68 -17 28 30 -45
000010 17 ed d4 0f 31 2d 1f 18 36 08 1d d6 1e 0f f9 e5
       23 -19 -44 15 49 45 31 24 54 8 29 -42 30 15 -7 -27
000020 3c fa fa fa 3b 2f 16 56 e9 bf fd cc 09 01 d3 1e
       60 -6 -6 -6 59 47 22 86 -23 -65 -3 -52 9 1 -45 30
000030 0f fd 0e 15 0c 01 f6 0a 1b c9 22 fa 1d 0c c9 08
       15 -3 14 21 12 1 -10 10 27 -55 34 -6 29 12 -55 8
000040 d6 c7 fc 08 be bf dc 20 9e 17 dd 46 ac 1d 33 d0
       -42 -57 -4 8 -66 -65 -36 32 -98 23 -35 70 -84 29 51 -48
000050 e9 e1 0c f1 d0 c1 08 03 4a 13 05 07 fd 0b 0b d4
       -23 -31 12 -15 -48 -63 8 3 74 19 5 7 -3 11 11 -44
000060 0f f1 f6 fe 27 f7 16 5c f6 27 10 e9 f5 18 10 f6
       15 -15 -10 -2 39 -9 22 92 -10 39 16 -23 -11 24 16 -10
000070 26 20 fb f6 09 06 05 2c 02 e8 11 e1 29 16 d3 fc
       38 32 -5 -10 9 6 5 44 2 -24 17 -31 41 22 -45 -4
000080 eb d9 ee fd a2 de fe 02 ee 0e c8 ff f5 23 0d e8
       -21 -39 -18 -3 -94 -34 -2 2 -18 14 -56 -1 -11 35 13 -24
000090 c1 0c f1 f6 fd c2 ee fa d1 cd ee 1d 1a 01 d9 d2
       -63 12 -15 -10 -3 -62 -18 -6 -47 -51 -18 29 26 1 -39 -46
0000a0 dc 09 1f 09 db e4 20 12 f9 16 05 ec a6 01 04 ed
       -36 9 31 9 -37 -28 32 18 -7 22 5 -20 -90 1 4 -19
0000b0 f2 1c 0b f7 11 f4 11 13 0c 1b 14 dd ec ff e2 10
       -14 28 11 -9 17 -12 17 19 12 27 20 -35 -20 -1 -30 16
0000c0 e5 b2 08 10 44 21 08 1f 11 38 e5 05 1e 1a 28 05
       -27 -78 8 16 68 33 8 31 17 56 -27 5 30 26 40 5
0000d0 c6 e4 f4 e1 81 02 01 0f fa f8 f7 14 ef 17 02 f0
       -58 -28 -12 -31 -127 2 1 15 -6 -8 -9 20 -17 23 2 -16
0000e0 f9 1e fc f4 33 e6 f5 24 10 10 02 12 03 13 0d f1
       -7 30 -4 -12 51 -26 -11 36 16 16 2 18 3 19 13 -15
0000f0 03 26 12 12 ca f3 17 37 15 16 0e fc f1 f8 df fc
       3 38 18 18 -54 -13 23 55 21 22 14 -4 -15 -8 -33 -4

model_1/conv2d_1/Conv2D i1 [16, 4, 4, 16]
000000 f4 0c f2 06 05 0b fc ed 09 07 1b 12 ea e7 1d e0
       -12 12 -14 6 5 11 -4 -19 9 7 27 18 -22 -25 29 -32
000010 15 ee 02 07 19 15 07 f1 f7 10 d6 ec f2 f1 f5 ed
       21 -18 2 7 25 21 7 -15 -9 16 -42 -20 -14 -15 -11 -19
000020 13 f0 f3 f7 01 02 09 f5 eb 14 06 cd ed f5 e4 f0
       19 -16 -13 -9 1 2 9 -11 -21 20 6 -51 -19 -11 -28 -16
000030 09 18 ef f8 1b 03 eb f5 fd 0e 05 08 ed f8 de fa
       9 24 -17 -8 27 3 -21 -11 -3 14 5 8 -19 -8 -34 -6
000040 ff f7 09 05 0b f6 f2 ed 05 02 0d 0e f0 f0 08 f8
       -1 -9 9 5 11 -10 -14 -19 5 2 13 14 -16 -16 8 -8
000050 34 b4 f1 4f fa 33 51 f1 12 1c d2 92 f8 f8 3b ff
       52 -76 -15 79 -6 51 81 -15 18 28 -46 -110 -8 -8 59 -1
000060 24 e5 ef 05 43 16 b6 f6 fc f8 de a2 f3 f7 5d 02
       36 -27 -17 5 67 22 -74 -10 -4 -8 -34 -94 -13 -9 93 2
000070 f2 30 e7 fa 1e 0b 15 00 f2 07 08 2f f4 f7 ed f9
       -14 48 -25 -6 30 11 21 0 -14 7 8 47 -12 -9 -19 -7
000080 01 db fc 2a fb ea 00 f2 0c 06 15 0b f5 f3 fb ef
       1 -37 -4 42 -5 -22 0 -14 12 6 21 11 -11 -13 -5 -17
000090 22 a2 ac 0e e7 f8 e9 02 00 0c 0d e3 fb f9 59 fe
       34 -94 -84 14 -25 -8 -23 2 0 12 13 -29 -5 -7 89 -2
0000a0 08 3e 56 c4 ee ce d5 f1 f2 54 05 75 f6 f4 d6 fb
       8 62 86 -60 -18 -50 -43 -15 -14 84 5 117 -10 -12 -42 -5
0000b0 0d 21 2a ef b4 05 f2 ed 2a 05 d7 47 f8 00 81 f8
       13 33 42 -17 -76 5 -14 -19 42 5 -41 71 -8 0 -127 -8
0000c0 02 02 0d 07 fd f5 f1 f6 fa 01 f7 fe f5 f7 fd f3
       2 2 13 7 -3 -11 -15 -10 -6 1 -9 -2 -11 -9 -3 -13
0000d0 0d f1 f2 e8 f0 eb ef f0 dd fe e2 10 f4 ef 1e 00
       13 -15 -14 -24 -16 -21 -17 -16 -35 -2 -30 16 -12 -17 30 0
0000e0 10 49 37 d6 fa f2 f9 ef 20 22 c4 20 ed f4 c4 ef
       16 73 55 -42 -6 -14 -7 -17 32 34 -60 32 -19 -12 -60 -17
0000f0 21 20 fd 09 f6 31 ff f6 b5 8e 28 0f ec f8 f1 ee
       33 32 -3 9 -10 49 -1 -10 -75 -114 40 15 -20 -8 -15 -18

model_1/conv2d/Conv2D i1 [16, 4, 4, 1]
000000 cf d7 1a 47 94 a3 21 72 97 b8 39 7f cd e7 2c 41
       -49 -41 26 71 -108 -93 33 114 -105 -72 57 127 -51 -25 44 65
000010 03 31 56 27 02 4a 7f 35 01 17 1f 0b fd f5 f7 f4
       3 49 86 39 2 74 127 53 1 23 31 11 -3 -11 -9 -12
000020 f5 53 7f 3d c6 f6 57 35 b6 b3 f0 07 db b9 e8 02
       -11 83 127 61 -58 -10 87 53 -74 -77 -16 7 -37 -71 -24 2
000030 31 7f 56 08 2c 56 2d f2 e6 e8 ae b4 df d2 90 9d
       49 127 86 8 44 86 45 -14 -26 -24 -82 -76 -33 -46 -112 -99
000040 00 00 00 00 00 00 00 00 00 00 00 ff 81 00 01 00
       0 0 0 0 0 0 0 0 0 0 0 -1 -127 0 1 0
000050 15 c1 a4 d5 45 dd 81 b5 7e 30 d1 cb 76 65 23 01
       21 -63 -92 -43 69 -35 -127 -75 126 48 -47 -53 118 101 35 1
000060 00 00 00 00 00 00 00 00 00 00 00 00 00 00 00 81
       0 0 0 0 0 0 0 0 0 0 0 0 0 0 0 -127
000070 b1 ec 5f e9 72 25 d3 86 8a 46 9d 7f 4b d8 d3 3c
       -79 -20 95 -23 114 37 -45 -122 -118 70 -99 127 75 -40 -45 60
000080 81 00 00 00 00 00 00 00 00 00 00 00 00 00 00 00
       -127 0 0 0 0 0 0 0 0 0 0 0 0 0 0 0
000090 ff 81 ff ff ff fb fd fe fe 01 fe 01 01 ff 02 ff
       -1 -127 -1 -1 -1 -5 -3 -2 -2 1 -2 1 1 -1 2 -1
0000a0 bb 85 81 af da be d2 e6 2b 38 43 2a 53 63 5e 38
       -69 -123 -127 -81 -38 -66 -46 -26 43 56 67 42 83 99 94 56
0000b0 05 0e fa ef 54 7f 08 eb 42 5d 0b f3 04 ff f4 03
       5 14 -6 -17 84 127 8 -21 66 93 11 -13 4 -1 -12 3
0000c0 c0 59 0b b3 c2 27 e4 f1 7c db 1d 32 8b 7f af 01
       -64 89 11 -77 -62 39 -28 -15 124 -37 29 50 -117 127 -81 1
0000d0 10 2b 1a 81 25 d8 03 5b 03 89 15 a9 32 e0 3c 33
       16 43 26 -127 37 -40 3 91 3 -119 21 -87 50 -32 60 51
0000e0 18 0c 24 25 af 97 11 3a a9 81 f8 28 02 ff 20 18
       24 12 36 37 -81 -105 17 58 -87 -127 -8 40 2 -1 32 24
0000f0 2e 23 bd ff 8d f4 24 d2 33 28 1d 30 4b 81 19 f6
       46 35 -67 -1 -115 -12 36 -46 51 40 29 48 75 -127 25 -10
